Assets/results/AIAgent/ARAgent/ARAgent-35608.pt (torch, 450015 bytes, 36 tensors)

network_body.linear_encoder.seq_layers.0.weight f4 [128, 9]
0	0xbf0e4ee4	-0.5558913
1	0x3e419fa1	0.1890855
2	0x3d948977	0.07252782
3	0x3f1a4549	0.6026197
4	0x3e9f444e	0.311068
5	0x3ea91567	0.3302414
6	0xbd12cb40	-0.035838366
7	0x3dfaeff1	0.122527964
8	0xbe424cd2	-0.18974617
9	0xbdf0c5da	-0.11756487
10	0x3d0b4fa8	0.034011513
11	0xbe82e566	-0.25565642
12	0x3c33e48e	0.010979785
13	0xbe9f3900	-0.31098175
14	0xbe750ef5	-0.23931487
15	0xbf210e8f	-0.6291284
16	0xbd0c5dc6	-0.034269117
17	0x3e7e8c75	0.24858268
18	0xbea5ed7c	-0.3240775
19	0xbea19928	-0.3156216
20	0xbe4dbea0	-0.20092249
21	0xbe43d343	-0.19123559
22	0x3dacc95b	0.08436843
23	0x3e283353	0.16425829
24	0xbea6ec5a	-0.32602197
25	0xbd60766d	-0.05480044
26	0xbe32b087	-0.17450152
27	0xbe5e8f94	-0.21734458
28	0xbd0b1a8f	-0.033960875
29	0xbd575186	-0.05256798
30	0xbebe59d3	-0.37177905
31	0x3f11b7d1	0.56921107
32	0xbe83a7cb	-0.25713953
33	0xbec50299	-0.38478544
34	0x3e517d28	0.204579
35	0x3ee6fc51	0.45114377
36	0x3f73fda1	0.9530888
37	0x3eba202a	0.36352664
38	0xbe34935c	-0.17634338
39	0xbe89e4a3	-0.26932248
40	0xbdee9bee	-0.11650835
41	0x3e01cad0	0.12675023
42	0xbea998bc	-0.3312434
43	0x3d3926b2	0.04520292
44	0xbe8c15c1	-0.27360347
45	0xbef6d299	-0.48207548
46	0xbf33659f	-0.70076936
47	0xbec085a9	-0.37601975
48	0xbddd8837	-0.108169965
49	0x3eff7bf2	0.4989925
50	0xbd5c98be	-0.053856604
51	0x3e2f36e1	0.17110778
52	0xbe23238f	-0.15931533
53	0xbde34c0b	-0.110984884
54	0x3c244093	0.010025161
55	0x3dfaa898	0.12239188
56	0x3ebaeb73	0.36507758
57	0x3ed503fc	0.41604602
58	0xbf18245e	-0.5943049
59	0xbe10ff1e	-0.1415982
60	0xbddae546	-0.10688262
61	0x3c30b6af	0.010785743
62	0x3f0f825e	0.560583
63	0x3ea31b75	0.31856886
64	0x3c943674	0.018092372
65	0x3ee6506a	0.44983226
66	0xbdb66576	-0.08906071
67	0xbeb106d7	-0.3457553
68	0xbebee2d5	-0.37282434
69	0xbd08a976	-0.033364736
70	0xbebf72c0	-0.37392235
71	0xbe90f701	-0.2831345
72	0xbf16305b	-0.58667535
73	0xbe1f07a6	-0.15530261
74	0x3e397eb1	0.18114735
75	0xbe436350	-0.19080853
76	0x3f3f7702	0.74790967
77	0x3e499799	0.19686736
78	0x3ee40be8	0.44540334
79	0xbe4656ef	-0.193691
80	0x3e96ca26	0.29451102
81	0x3eee4107	0.46533987
82	0x3e81e0de	0.25366873
83	0x3e7e49ad	0.24832793
84	0xbf0727ca	-0.5279509
85	0x3f52205b	0.8208062
86	0x3eb4b6f9	0.35295847
87	0x3ec7b332	0.39003903
88	0xbe587341	-0.21137716
89	0xbe8d3cd5	-0.27585474
90	0x3e3d8e1d	0.18511243
91	0xbdb5befd	-0.08874319
92	0x3ec0f026	0.3768322
93	0x3e6bb49c	0.23018116
94	0x3de9826c	0.11401829
95	0xbdfb9e50	-0.12286055
96	0xbc66b53c	-0.014081296
97	0x3e83f2f3	0.25771293
98	0x3e4c7025	0.19964655
99	0x3d276baf	0.04087418
100	0xbe36eb33	-0.17863159
101	0x3e41ea2c	0.18936986
102	0xbe939cf6	-0.2883069
103	0x3e381f48	0.17980683
104	0x3d861ef0	0.065488696
105	0x3da20c2f	0.0791248
106	0xbe60df73	-0.21960239
107	0xbe5524d2	-0.20814827
108	0x3eeed250	0.4664483
109	0x3d96313e	0.07333611
110	0x3eabc411	0.33548024
111	0xbe1e6451	-0.15467955
112	0xbe2fb7e2	-0.1715999
113	0xbeeda3c5	-0.4641401
114	0xb8663c74	-5.4892575e-05
115	0x3e1429e5	0.14469106
116	0xbe89c318	-0.26906657
117	0xbe1d19a3	-0.15341811
118	0x3e8c0b53	0.2735239
119	0xbdd5dc00	-0.10442352
120	0xbeceaa54	-0.40364325
121	0x3e31343d	0.17305084
122	0x3ddff8b5	0.10936109
123	0x3e0c9d93	0.13731985
124	0x3d242112	0.0400706
125	0xbf52d4ce	-0.82355964
126	0x3e069c1a	0.13145486
127	0x3caadf7c	0.020858519
128	0x3e50b949	0.2038318
129	0x3d3c0acd	0.045908738
130	0x3c5584fb	0.013032193
131	0x3e8cde88	0.27513528
132	0x3e51730f	0.20454048
133	0xbeef70a6	-0.4676563
134	0xbe81ba78	-0.25337577
135	0x3e428eef	0.18999837
136	0x3e16cb7a	0.14726058
137	0xbd1d6022	-0.038421758
138	0xbdb51cb3	-0.088433646
139	0xbd804cbb	-0.06264635
140	0x3e910f97	0.28332207
141	0xbec81a68	-0.39082646
142	0xbe1e19c5	-0.15439518
143	0xbf25082a	-0.6446558
144	0x3eb529a1	0.35383323
145	0xbdeb8596	-0.11500089
146	0xbe7557d4	-0.23959285
147	0xbf03a427	-0.5142235
148	0xbc646e7f	-0.01394236
149	0xbe154a0c	-0.14579028
150	0x3e6918c8	0.2276336
151	0x3e82cdc6	0.25547618
152	0xbda98684	-0.0827761
153	0xbdf0c436	-0.11756174
154	0x3b487880	0.0030589402
155	0x3e0ace87	0.13555346
156	0xbe1e77b2	-0.15475348
157	0x3ea6e7cf	0.3259873
158	0xbdecb7f8	-0.11558527
159	0x3f0689eb	0.52554196
160	0x3e65d945	0.22446163
161	0xbf0a0671	-0.5391608
162	0xbec63b55	-0.38717142
163	0xbee2f6ab	-0.44328818
164	0x3d33c98d	0.043893386
165	0xbe5dbbb4	-0.21653634
166	0x3da110a9	0.07864506
167	0x3ed692c1	0.4190884
168	0x3e08e1d4	0.13367397
169	0x3e9a12da	0.30092508
170	0xbf10f027	-0.56616443
171	0x3d50248d	0.050816108
172	0xbe3e8d5a	-0.18608609
173	0x3e0491f2	0.12946299
174	0x3f11b6a3	0.56919307
175	0xbe8c8daf	-0.27451846
176	0xbc614d4d	-0.01375134
177	0xbe788cc4	-0.24272448
178	0x3e3bf917	0.18356739
179	0x3f1f97a0	0.62340736
180	0xbb975ebe	-0.0046194484
181	0x3e89e18a	0.26929885
182	0xbe28ec48	-0.16496384
183	0x3f0f633d	0.560108
184	0xbe59cd8c	-0.21269816
185	0xbc1c1c98	-0.009528302
186	0x3e6ef498	0.23335493
187	0x3d14194e	0.036156945
188	0x3e4ed5b2	0.20198706
189	0x3e085185	0.13312347
190	0x3ef1ab2a	0.472009
191	0xbd3b1f0f	-0.045683917
192	0xbe902364	-0.28152
193	0xbd92136f	-0.07132613
194	0xbe2f3d1e	-0.17113158
195	0xbeb4b853	-0.35296878
196	0xbef22e65	-0.4730102
197	0x3e9913b5	0.29897848
198	0x3ec68267	0.38771364
199	0x3de9e1a2	0.11419989
200	0x3e017841	0.1264353
201	0x3d9705a6	0.07374124
202	0xbf0218f6	-0.5081934
203	0xbe6ba6cc	-0.23012847
204	0x3dcb3232	0.09921683
205	0xbeb1f056	-0.34753674
206	0xbba2b9d9	-0.0049660024
207	0x3eac4ce9	0.33652428
208	0xbe17d1f4	-0.14826185
209	0x3dcb4f13	0.099271916
210	0x3f6be87e	0.9215163
211	0xbece0cf1	-0.40244249
212	0x3e3efedb	0.18651907
213	0x3f62a19b	0.8852784
214	0x3e814bda	0.25253183
215	0xbd1b2934	-0.03788109
216	0x3dab0b43	0.083517574
217	0xbe6e8075	-0.2329119
218	0xbf27f2b0	-0.65604687
219	0xbf03e56d	-0.5152195
220	0x3e35e90a	0.17764679
221	0xbd086105	-0.03329565
222	0xbdf8634f	-0.121283166
223	0xbed68e5e	-0.41905493
224	0xbe274912	-0.16336468
225	0xbe78367f	-0.24239539
226	0x3d54b558	0.051930755
227	0xbf1c7460	-0.61115074
228	0xbecc19e7	-0.39863512
229	0xbd324024	-0.0435182
230	0xbf82bc2e	-1.0213678
231	0x3d90b724	0.07066181
232	0x3baaa821	0.005208031
233	0x3d6bc716	0.05756291
234	0xbf166289	-0.587441
235	0x3e90148a	0.2814067
236	0x3e4fbb4b	0.2028629
237	0xbd924bca	-0.07143362
238	0xbd39578b	-0.045249503
239	0x3d2a1f96	0.04153403
240	0x3d81e292	0.06342043
241	0x3c7f718f	0.015591039
242	0xbd47e28e	-0.048800044
243	0xbc4d58b5	-0.012533356
244	0x3dbe4f14	0.09292427
245	0x3f493bc4	0.7860682
246	0xbce2ae5e	-0.027671035
247	0xbe7e7762	-0.24850228
248	0xbd9abd19	-0.07555599
249	0xbe1eea9b	-0.15519182
250	0x3e465e33	0.19371872
251	0x3e9c29d7	0.3050067
252	0xbdbd140f	-0.092323415
253	0x3cdfa364	0.02729959
254	0x3d85c3cb	0.06531485
255	0xbe619ce4	-0.22032505

network_body.linear_encoder.seq_layers.0.bias f4 [128]
0	0x3cebc718	0.028781459
1	0xbbd426ee	-0.0064743673
2	0x3c7c17e8	0.015386559
3	0xbc9ce89e	-0.01915389
4	0xbc78b524	-0.015179906
5	0xbb7d523b	-0.003865375
6	0xbd63a524	-0.055577412
7	0x3d496124	0.049164906
8	0xbc115b3c	-0.00887185
9	0xbcb8f3c8	-0.022577181
10	0xbd23c8b8	-0.039986342
11	0x3cd00d2c	0.025396906
12	0x3d093966	0.033502005
13	0x3c5a582c	0.013326686
14	0xbc810fee	-0.015754666
15	0xbb341294	-0.0027476894
16	0x3cd7f461	0.026361646
17	0xbd4feb70	-0.05076164
18	0x3c52cf56	0.012866816
19	0x3be025e0	0.0068404526
20	0x3c694fb1	0.014240191
21	0x3c331386	0.010929948
22	0x3d04a288	0.032381564
23	0x3cc47068	0.02397938
24	0x3ccdce6e	0.025122847
25	0x3b77dade	0.0037819664
26	0xbcc749c9	-0.024327176
27	0xbbf7f3fc	-0.007566927
28	0x3d2b349a	0.04179821
29	0x3c0670a3	0.008205566
30	0x3ce2336a	0.027612407
31	0x3b5b0d07	0.0033424513
32	0x3cc0b9b0	0.023526043
33	0x3c91848c	0.017763399
34	0xbbb8ee32	-0.0056436295
35	0xbcc5e2e0	-0.024156034
36	0xbca1cea5	-0.019751856
37	0x3d7ec070	0.06219524
38	0xbcb6e8aa	-0.02232774
39	0xbbf68784	-0.007523479
40	0xbba6701b	-0.005079282
41	0xbcb22c24	-0.021749564
42	0x38efe4fc	0.0001143906
43	0x3be09700	0.006853938
44	0xbc23f456	-0.010006985
45	0x3b6e1ffb	0.003633498
46	0x3c09b727	0.008405483
47	0xbbb9c7d4	-0.0056695733
48	0xbd112309	-0.035433803
49	0x3b9ac55a	0.004723233
50	0xbbb37e5f	-0.005477711
51	0xbc3a5873	-0.011373627
52	0xbca9eb2c	-0.020742022
53	0x3b659236	0.0035029775
54	0x3c785361	0.015156598
55	0x3c930968	0.017948821
56	0xb9ddf01e	-0.00042331306
57	0x3cc87040	0.024467587
58	0x3d15ad2d	0.036542106
59	0xbd2d3722	-0.042288907
60	0xbcb60f35	-0.022224048
61	0xbce39594	-0.027781285
62	0xbc1d6a51	-0.009607867
63	0xbcc5ae9e	-0.024131116
64	0x3c348a05	0.011019235
65	0x3d33ea01	0.043924335
66	0xbca07a2e	-0.01958951
67	0xbc9af241	-0.018914344
68	0x3a7f6386	0.0009742308
69	0xbd577771	-0.052604143
70	0xbcea0a48	-0.028569356
71	0x3bcc4a5f	0.0062344517
72	0x3c0b4c8b	0.008502136
73	0xbcda3a20	-0.026639044
74	0xbc7b149e	-0.01532474
75	0xbd10fd44	-0.035397783
76	0xbd46e769	-0.048560534
77	0xbd7158df	-0.058922645
78	0xbcba569d	-0.022746379
79	0xbc7f8412	-0.015595453
80	0xbcf74799	-0.030185508
81	0xbcb05336	-0.021524053
82	0xbb8ce548	-0.0042997934
83	0x3c38759c	0.011258509
84	0xbd5bfbf6	-0.053707086
85	0xbd80dc22	-0.06291987
86	0xbc510d7f	-0.012759565
87	0xbd469eea	-0.048491396
88	0xbc7b4412	-0.015336053
89	0xbaf04ffb	-0.0018334383
90	0x3ba5ff7a	0.0050658556
91	0xbcce6de1	-0.025198879
92	0xbcd1035b	-0.025514295
93	0x3c50a27a	0.01273405
94	0xbc528c1f	-0.01285079
95	0x3cfcb056	0.030845802
96	0xbbd9c97f	-0.0066463347
97	0x3b9a9c95	0.004718373
98	0xbc36a8df	-0.01114866
99	0x3b3fc536	0.0029261834
100	0x3cd98701	0.026553633
101	0x3bc1bff9	0.0059127775
102	0xbd0b506c	-0.034012243
103	0x398a6adb	0.00026401025
104	0x3c0f6c89	0.008753904
105	0x3c6b9e5a	0.014381016
106	0x3c1c0321	0.00952223
107	0xbc234aa2	-0.009966524
108	0xbc0cdc93	-0.008597511
109	0x3c1dfec5	0.009643261
110	0x3d6da9eb	0.058023375
111	0x3cd92f3a	0.026511777
112	0x3d7ca16f	0.061677393
113	0x3d3b777e	0.045768254
114	0xbcad8c51	-0.021185072
115	0x3c1e0c7f	0.009646534
116	0xbab95455	-0.0014139513
117	0x3cc385d3	0.023867523
118	0x3c76378d	0.015027893
119	0xbca3d1e7	-0.01999755
120	0x3ce4dddc	0.027937822
121	0x3d04d77e	0.032432072
122	0x3c12764c	0.008939337
123	0x3d261119	0.04054365
124	0xbbb4a443	-0.0055127456
125	0x3c63ec70	0.013911352
126	0xbc90836c	-0.017640792
127	0xbd0112ba	-0.031512

network_body.linear_encoder.seq_layers.2.weight f4 [128, 128]
0	0x3d574741	0.052558187
1	0xbd43cfc9	-0.04780558
2	0x3de6c426	0.11267881
3	0xbc9cbfc9	-0.019134419
4	0xbe160bdf	-0.14652966
5	0xbd92e99b	-0.07173463
6	0x3d454b4e	0.04816752
7	0xbd21dd0b	-0.039517444
8	0xbb8fbe41	-0.0043866937
9	0x3c4609fc	0.012087341
10	0xbe99f071	-0.30066255
11	0x3da0ae22	0.07845713
12	0x3d636b27	0.05552211
13	0xbe3425c8	-0.17592537
14	0x3bcc79c4	0.0062401015
15	0x3c84699b	0.016163638
16	0xbe516239	-0.20447625
17	0xbd3b3f56	-0.0457147
18	0x3e166c58	0.14689767
19	0x3ddd7f5f	0.1081531
20	0x3ddd121f	0.10794472
21	0xbdd069d8	-0.10176438
22	0xbdfb510a	-0.12271316
23	0x3d5c7ab2	0.05382795
24	0xbe141b12	-0.14463452
25	0xbd40c8fa	-0.047066666
26	0xbda9de1e	-0.082943186
27	0x3d6cee98	0.05784473
28	0xbe452583	-0.19252591
29	0xbe08b43d	-0.13350005
30	0x3d99ae2f	0.07503926
31	0x3cf91f04	0.030410297
32	0x3d4ced80	0.050031185
33	0x3cd763c7	0.026292695
34	0xbdc464f4	-0.09589568
35	0xbd5e9ad2	-0.054346867
36	0x3ce04a05	0.027379045
37	0xbe3eb5ca	-0.18624035
38	0xbdb56770	-0.0885762
39	0x3a7e48e1	0.0009700191
40	0x3ccc721f	0.02495676
41	0xbe171438	-0.14753807
42	0x3d9db3b7	0.077002935
43	0xbdaa8859	-0.083267875
44	0x3d99c53e	0.07508324
45	0x3d6ca924	0.057778493
46	0x3dcbbdaf	0.09948289
47	0xbd489c78	-0.048977345
48	0x3d98906c	0.07449421
49	0xbdb9cb7b	-0.09072014
50	0x3e3abd0c	0.18236178
51	0x3dc0aa51	0.09407485
52	0x3e1f8553	0.15578203
53	0xbd517f08	-0.051146537
54	0xbd51802b	-0.05114762
55	0x3dc72bd3	0.09725156
56	0xbde3fe9d	-0.11132548
57	0x3d885104	0.066560775
58	0xbe060580	-0.13088036
59	0xbdba35e9	-0.09092314
60	0x3e209b0a	0.15684143
61	0xbd87a9ac	-0.06624159
62	0x3dc2894d	0.09498844
63	0x3d96dc23	0.073662065
64	0xbdd0a6e3	-0.10188081
65	0xbe09dac9	-0.13462366
66	0x3e128fc4	0.14312655
67	0x3d8c8fb8	0.0686335
68	0x3c57a453	0.013161737
69	0x3d7d485f	0.061836597
70	0xbdff1186	-0.12454514
71	0xbd56149c	-0.05226575
72	0x3e020c55	0.12700017
73	0xbcb20dd3	-0.021735108
74	0xbe5a33c5	-0.21308811
75	0xbe0900ae	-0.13379166
76	0xbbaf817a	-0.005356011
77	0xbd0034bb	-0.031300288
78	0xbdc2d19f	-0.09512638
79	0xbd03bf6b	-0.032164972
80	0x3e31f8a8	0.17380011
81	0xbd33544d	-0.043781567
82	0xbd3a7059	-0.0455173
83	0xbd54cd52	-0.05195362
84	0x3e2e360b	0.17012803
85	0x3dd96264	0.1061447
86	0xbd31a2a7	-0.043368008
87	0xbda4d4a3	-0.0804837
88	0xbdb24ec6	-0.08706431
89	0xbbcf4406	-0.0063252477
90	0xbdf10eb4	-0.117703825
91	0xbcb50162	-0.022095386
92	0x3dd037e6	0.10166912
93	0x3ddf5be7	0.10906201
94	0xbd0e9abc	-0.034815535
95	0xbdd5fb6d	-0.10448346
96	0x3d763e84	0.060118213
97	0xbd3c42c9	-0.04596213
98	0x3dcf0ec9	0.10110242
99	0x3da1adf7	0.07894509
100	0xbe3e7e74	-0.18602926
101	0x3c8465c8	0.016161814
102	0x3b80e7ed	0.0039338977
103	0xbce6c237	-0.02816878
104	0x3e2dc162	0.16968301
105	0x39f8e8af	0.0004747561
106	0x3d5cced2	0.053908177
107	0x3c433028	0.011913337
108	0xbd253f12	-0.04034335
109	0x3c725706	0.014791256
110	0xbd8c6b09	-0.06856353
111	0x3d3e1563	0.046407115
112	0x3e0c387a	0.13693419
113	0x3dfeb256	0.12436359
114	0x3d8bb7d8	0.06822175
115	0x3e339a66	0.17539367
116	0x3cfaa5d2	0.030596647
117	0x3e613790	0.21993852
118	0xbe1a88d1	-0.15091254
119	0x3d870bf9	0.065940805
120	0xbe0720d7	-0.13196121
121	0xbd40c98a	-0.047067203
122	0x3dca0260	0.09863734
123	0xbc88939e	-0.016671952
124	0x3d27f7a1	0.04100764
125	0x3d7f8d76	0.062390767
126	0xbdacd337	-0.084387235
127	0x3df524d1	0.11969913
128	0xbdd59f3a	-0.10430761
129	0x3cc03a1b	0.023465207
130	0xbd55def9	-0.052214596
131	0x3de35d6c	0.11101803
132	0xbd46c8bf	-0.04853129
133	0xbc809a24	-0.0156985
134	0x3d398e38	0.045301646
135	0x3d88d458	0.06681126
136	0x3caf64a1	0.021410288
137	0xbccc2e86	-0.024924528
138	0xbd9f5796	-0.077803776
139	0xbd153fb9	-0.036437724
140	0xbb607243	-0.0034247793
141	0x3ddbe225	0.10736493
142	0x3e2326f9	0.15932836
143	0xbdd9861c	-0.106212825
144	0x3dd73e34	0.10509911
145	0x3d9127d8	0.07087678
146	0x3dd51bda	0.10405703
147	0xbdd741e6	-0.10510616
148	0x3e1878c5	0.1488982
149	0xbe098fa9	-0.13433708
150	0x3db187f4	0.08668509
151	0xba47fd7b	-0.0007629019
152	0xbda6a35b	-0.08136626
153	0xbe30bf02	-0.17260364
154	0x3dc8ab4a	0.09798296
155	0x3d9f3a40	0.07774782
156	0xbdec6be9	-0.1154402
157	0xbe22ae15	-0.1588672
158	0x3cc175ea	0.023615796
159	0xbd3ef274	-0.04661794
160	0x3ddcab2b	0.10774835
161	0xbd1cb9be	-0.038263075
162	0x3d719d47	0.058987882
163	0xbbc38b73	-0.0059675514
164	0xbd6945fe	-0.056951515
165	0xbc25aa66	-0.010111427
166	0xbce7309e	-0.028221425
167	0xbd05e564	-0.032689467
168	0x3d8ebd45	0.06969694
169	0x3dca941e	0.09891532
170	0xbd8b63a0	-0.06806111
171	0xbcc08bdf	-0.023504196
172	0xbe83534f	-0.25649497
173	0x3dd9ee78	0.106411874
174	0xbd571205	-0.05250742
175	0xbe0c7cd9	-0.137195
176	0xbd396814	-0.045265272
177	0xbda5038a	-0.08057316
178	0xbdd8a15f	-0.10577654
179	0xbe15b10b	-0.14618318
180	0xbd61b8e5	-0.05510797
181	0x3e1c35e7	0.15254937
182	0x3d238f45	0.039931554
183	0x3dae3057	0.08505314
184	0xbdac1857	-0.0840308
185	0x3d1a8550	0.037724793
186	0x3c0a70de	0.008449761
187	0x3e447bad	0.19187804
188	0x3cd9c572	0.026583407
189	0x3e1ea8f5	0.1549414
190	0xbd00e5af	-0.031469043
191	0xbe26c2d7	-0.16285263
192	0xbe2491ff	-0.16071318
193	0xbdcc5cb3	-0.099786185
194	0x3c8a556c	0.016886435
195	0x3db980c7	0.090577655
196	0xbddbfae5	-0.10741214
197	0xbdad3d0a	-0.08458908
198	0xbe290e4a	-0.16509357
199	0x3e39ddb5	0.18150981
200	0x3d91c484	0.071175605
201	0x3e38f1b7	0.18060957
202	0x3d09d972	0.033654638
203	0xbd71d456	-0.05904039
204	0xba102542	-0.0005498716
205	0xbdba8359	-0.09107084
206	0xbda227a6	-0.079177186
207	0x3e6eb950	0.23312879
208	0x3d892604	0.06696704
209	0x3cee3302	0.029077057
210	0x3d9de569	0.07709772
211	0x3c8ef844	0.017452367
212	0xbc63e66b	-0.013909916
213	0x3e105443	0.14094643
214	0x3d06573d	0.03279804
215	0xbd259a75	-0.040430505
216	0xbde10816	-0.109878704
217	0xbc2e0d66	-0.010623312
218	0x3cb84d53	0.022497809
219	0xbe20fc62	-0.15721276
220	0x3d14843b	0.036258917
221	0xbdf40e63	-0.119168065
222	0xbcbebaef	-0.023282496
223	0x3d9be414	0.07611862
224	0xbb9b8e51	-0.00474719
225	0x3d6b3183	0.057420265
226	0x3d8eafff	0.06967162
227	0x3c336aa8	0.010950722
228	0xbc875f79	-0.016525017
229	0xbd2a94af	-0.041645702
230	0xbe0332ce	-0.12812349
231	0xbc97ec5b	-0.01854532
232	0x3d2b1db2	0.041776367
233	0x3de76c49	0.11299951
234	0x3c542770	0.012948856
235	0x3d04984e	0.03237181
236	0xbbc69882	-0.006060661
237	0x3d06ea0e	0.032938056
238	0x3d66bb9b	0.05633126
239	0x3d4c4d61	0.04987848
240	0xbd9c30d0	-0.07626498
241	0x3cbbe19c	0.022934727
242	0x3d14cc0b	0.036327403
243	0x3da6631f	0.081243746
244	0x3c82e60d	0.015978837
245	0x3bd335d7	0.006445627
246	0xbe5da66e	-0.21645519
247	0xbc2c4dba	-0.010516578
248	0xbdbb3b22	-0.09142138
249	0x3cfa436d	0.03054973
250	0xbc9aba73	-0.018887734
251	0x3de83a29	0.11339218
252	0x3c1cf537	0.009579948
253	0x3d121c57	0.03567156
254	0x3e0c7299	0.1371559
255	0xbe065a29	-0.13120331

network_body.linear_encoder.seq_layers.2.bias f4 [128]
0	0x3c007bb5	0.007841994
1	0x3c2c5d86	0.010520345
2	0x3d1ac621	0.037786607
3	0xbc3dd184	-0.011585597
4	0xbc371982	-0.011175515
5	0xbb60f910	-0.003432814
6	0x3bce0f7d	0.0062884674
7	0xbc875889	-0.016521709
8	0xbbcf0a1b	-0.0063183433
9	0x3bbbbb07	0.0057290825
10	0x3d025cb6	0.031826697
11	0xbccfd4dd	-0.025370056
12	0x3c26c772	0.010179387
13	0x3c67f864	0.014158342
14	0x3cb11be0	0.021619737
15	0x3cfd8848	0.030948773
16	0xbd35540d	-0.04426961
17	0xbcc0d093	-0.023536956
18	0xbc386938	-0.011255555
19	0xbd23735d	-0.03990494
20	0xbc2b0793	-0.010438818
21	0x3c4f4d78	0.012652747
22	0x3c873ec8	0.016509429
23	0x3c722c7f	0.0147811165
24	0x3aa554b0	0.001261374
25	0xbc98bbd3	-0.018644249
26	0xbc47a073	-0.01218425
27	0x3b8aac23	0.004231946
28	0xbd0685b2	-0.032842346
29	0xbca3c505	-0.019991407
30	0xbd058e32	-0.03260631
31	0xbcfced86	-0.030874979
32	0x3b4bdf87	0.0031108574
33	0x3c18a2af	0.009316131
34	0x3c8addbd	0.016951436
35	0x3c459aae	0.012060804
36	0xbb583dc8	-0.003299581
37	0x3cbbbcc9	0.022917168
38	0xbc12b16b	-0.008953433
39	0xbc8d3a2d	-0.017239654
40	0x3bff7af9	0.007796642
41	0xbcebe93c	-0.028797738
42	0x3cc9d316	0.024636786
43	0xbc60e461	-0.013726325
44	0xbc9ec11d	-0.019379193
45	0xbcfa2b39	-0.030538188
46	0x3d08e6a2	0.033423074
47	0x3b5265b5	0.003210408
48	0xbb8535e7	-0.0040652636
49	0xbc4a9697	-0.012365005
50	0x3cb6dbbc	0.022321574
51	0xbd3d8e16	-0.04627808
52	0xbb4377e1	-0.0029826092
53	0x3d033e9d	0.032042135
54	0xbcacc6dc	-0.021090917
55	0x3bf7e8ed	0.0075656087
56	0x3af394e9	0.0018583807
57	0x3c26ed21	0.010188372
58	0x3d2131e3	0.039354216
59	0xbc2734ff	-0.010205506
60	0x3c9105a1	0.01770288
61	0xbc12cea6	-0.008960402
62	0xbcda67b5	-0.02666078
63	0xbd14747a	-0.036243893
64	0x3c4d754d	0.012540174
65	0xb8d2d8c9	-0.0001005396
66	0x3c017cf4	0.007903326
67	0x3c848060	0.016174495
68	0x3cbbb92d	0.022915447
69	0xbacd2b7b	-0.0015653217
70	0xbc770760	-0.015077442
71	0x3d0cd1b9	0.034379695
72	0xbcdf6fe6	-0.027275037
73	0x3c94a213	0.01814369
74	0x3d101e9f	0.035185453
75	0xbc3d5a2a	-0.011557141
76	0x3c407fe5	0.011749242
77	0x3bc08387	0.0058750543
78	0x3ced6548	0.028978959
79	0x3c2a7bef	0.010405525
80	0xbbe26ced	-0.0069099576
81	0x3ca082d5	0.019593636
82	0xbcf55841	-0.02994931
83	0xbc86bf1a	-0.016448546
84	0x3c9aeeaa	0.018912632
85	0x399598d6	0.00028533366
86	0xbc643b8f	-0.0139302155
87	0xbac7e97b	-0.0015252078
88	0x3a2ecd2d	0.0006668147
89	0x3cbde645	0.02318109
90	0x3bb224db	0.0054365224
91	0x3ccc4ee8	0.02493997
92	0x3c262341	0.010140241
93	0xbc4f8b0e	-0.012667431
94	0x3bea5be4	0.0071520675
95	0x3ade92bd	0.0016980987
96	0x3c135157	0.008991561
97	0x3be99358	0.0071281604
98	0x3ae6b22f	0.001760071
99	0xbbb6bae7	-0.0055764797
100	0xbc368bdc	-0.0111417435
101	0xbcc6a358	-0.02424781
102	0xbb018a0b	-0.0019766118
103	0xbc86b7e3	-0.016445106
104	0xba91cf97	-0.0011124489
105	0x3c07098e	0.008242024
106	0xbd33a476	-0.043858014
107	0xbcdaaaf8	-0.026692852
108	0xbc7a6778	-0.015283458
109	0xbbaae83e	-0.0052156737
110	0x3c372012	0.01117708
111	0x3c66362f	0.014051004
112	0x3c30fb6c	0.010802131
113	0xbb2148c9	-0.0024610034
114	0x3c456db5	0.012050082
115	0xbd0f9951	-0.035058323
116	0xbc01e7f2	-0.007928835
117	0xbb600c55	-0.0034187038
118	0x3acea56e	0.0015765855
119	0x3c1e7296	0.009670874
120	0xbb7b0a8b	-0.0038305845
121	0xbc2856b4	-0.010274578
122	0x3b0aba5d	0.002116821
123	0xbd19ee03	-0.0375805
124	0x3a7e1200	0.0009692013
125	0x3d168150	0.036744416
126	0x3be17fc8	0.006881688
127	0xbcbd4112	-0.023102317

action_model._continuous_distribution.log_sigma f4 [1, 3]
0	0xbdb0a989	-0.08626086
1	0xbde76cc1	-0.1130004
2	0xbe1f9975	-0.15585883

action_model._continuous_distribution.mu.weight f4 [3, 128]
0	0xbd12f30f	-0.03587633
1	0x3cb53f4f	0.022124914
2	0xbd7a27b5	-0.061073024
3	0x3ba5d93c	0.0050612967
4	0x3c036067	0.00801859
5	0x3bd5c391	0.0065235575
6	0x3d99e81a	0.07514973
7	0x3bc06d0c	0.0058723744
8	0x3cc6069f	0.024173079
9	0x3cbe5c8f	0.023237495
10	0x3b0d6c8a	0.0021579587
11	0xbc8043ca	-0.015657324
12	0x3b0a600c	0.0021114377
13	0xbd3fad67	-0.04679623
14	0x3c4afaf7	0.012388936
15	0x3bd3fac3	0.006469102
16	0xbb16b107	-0.00229937
17	0x3c25c494	0.010117669
18	0x3cb74251	0.02237049
19	0x3c271d1f	0.010199814
20	0xbc026a09	-0.007959851
21	0x3c37d6ee	0.011220677
22	0x3d08d77d	0.03340863
23	0x3d19f7e3	0.03758992
24	0x381a6bbb	3.6816793e-05
25	0xbb744c13	-0.003727679
26	0xbc360662	-0.01110992
27	0xbca8666a	-0.020556647
28	0x3c30895e	0.010774938
29	0x3c3e7f17	0.01162698
30	0xbbcd2a3d	-0.0062611387
31	0xbb5d23a6	-0.0033743172
32	0x3d1dbe60	0.038511634
33	0xbaa361c3	-0.0012465048
34	0x3d08afd6	0.033370815
35	0x3bf2681a	0.007397664
36	0x3d14619e	0.036225908
37	0x3b22deaf	0.0024851968
38	0xbbda59e2	-0.006663547
39	0x3cb16130	0.021652788
40	0x3cbf03a0	0.023317158
41	0x3d12044a	0.03564862
42	0xbcaa0d56	-0.020758312
43	0xbaa25eb2	-0.001238784
44	0x3c13f263	0.0090299575
45	0xbb91539b	-0.0044350154
46	0x3b274d3d	0.0025528215
47	0xbd24c9d7	-0.040231552
48	0x3c614c58	0.013751112
49	0x3bbb6af8	0.005719539
50	0x3be7c71c	0.0070732962
51	0x3d3d6844	0.046242014
52	0xbccde0b9	-0.02513157
53	0x3c059c9b	0.008155013
54	0x3b142ef8	0.0022611003
55	0xbcc804b7	-0.02441631
56	0xbc9bf2f5	-0.01903675
57	0xbccc603b	-0.02494823
58	0x3d7506e2	0.059821017
59	0xbc989b9f	-0.018628893
60	0x3d81b95f	0.06334185
61	0x3c6a8a69	0.014315226
62	0x3c5ab602	0.013349058
63	0xbd385b26	-0.0450088
64	0xbc7ed87a	-0.015554542
65	0x3c9d21fc	0.019181244
66	0xbb10e77e	-0.0022110636
67	0xbd735e6b	-0.059416216
68	0xbd46e304	-0.048556343
69	0x3d32348d	0.043507148
70	0x3d5ec7fa	0.05438993
71	0x3d934a2c	0.071918815
72	0xbd0917b8	-0.033469886
73	0x3ca01f41	0.019546153
74	0x3d4f95d0	0.05067998
75	0x3c9ed6d5	0.01938955
76	0xbc5791a5	-0.013157283
77	0xbc0b7778	-0.00851237
78	0xbd2b1239	-0.041765425
79	0xbcfd554a	-0.030924458
80	0x3c5b7765	0.013395165
81	0xbc4c9047	-0.01248557
82	0xbcbfe959	-0.023426699
83	0xbb43c034	-0.00298692
84	0x3d9b4cd1	0.07583011
85	0x3d24cd8f	0.0402351
86	0x3cd986db	0.026553562
87	0x3c7ecc42	0.015551629
88	0x3ae3d12c	0.0017381064
89	0x3cd7f220	0.026360571
90	0x3bdccf65	0.0067385905
91	0x3d38379b	0.044974905
92	0x3c512ea0	0.012767464
93	0x3c90fbca	0.017698187
94	0x3c17fa5c	0.009275999
95	0x39bd3035	0.00036084806
96	0x3b9aa4d9	0.0047193584
97	0x3c99fb1b	0.018796494
98	0x3cfd33d5	0.030908505
99	0xbbcbb8d3	-0.006217101
100	0xba1917a1	-0.0005840008
101	0x3abd4483	0.0014439974
102	0x3d4382c5	0.047732133
103	0xbaef40e5	-0.0018253593
104	0x3c655067	0.01399622
105	0xbc44c2ee	-0.0120093655
106	0xbbc938b8	-0.0061407946
107	0xbd8aab4e	-0.06770955
108	0xbd108822	-0.035286076
109	0x3cfb62a6	0.030686688
110	0xbc2eb7e8	-0.010663964
111	0x3bfa21d3	0.0076334267
112	0xbd5f880b	-0.0545731
113	0x3c2a3976	0.010389676
114	0xbcb99f2d	-0.022658909
115	0xbc9c9e98	-0.019118592
116	0xbd1566ad	-0.036474872
117	0x3d42b52b	0.047536056
118	0x3c8258f8	0.015911564
119	0xbbb6f3e7	-0.0055832746
120	0x3cb330fa	0.02187394
121	0x3d20af9f	0.039229985
122	0x3cd7e883	0.026355987
123	0xbc2bbbbe	-0.010481773
124	0xbbd32ade	-0.006444319
125	0x3d90b7a6	0.07066278
126	0x3ca539cb	0.02016916
127	0xbcae80f0	-0.021301717
128	0x3d610bfc	0.05494307
129	0x3d6386ca	0.055548467
130	0x3d7d8b0a	0.061900176
131	0xbd2d4cff	-0.042309757
132	0xbc9cb6ae	-0.019130077
133	0x3ba4bcc2	0.0050273845
134	0xbd723efd	-0.0591421
135	0xbd14a661	-0.036291484
136	0xbc7cf765	-0.015439843
137	0x3b1c2289	0.0023824295
138	0x3d5a7cdc	0.05334173
139	0xbc3b9bbd	-0.011450705
140	0x3d684754	0.05670865
141	0x3d79d3b8	0.060992926
142	0x3d48800e	0.048950247
143	0xbced0766	-0.028934192
144	0xba9eca34	-0.0012114705
145	0xbce96021	-0.02848822
146	0xbc0584fc	-0.008149382
147	0x3b2bd2dd	0.0026218214
148	0xbc807c15	-0.015684167
149	0xbd5b8bb7	-0.05360004
150	0xbd6419bf	-0.055688616
151	0x3d49eadd	0.04929625
152	0x3d26adf4	0.04069324
153	0xbcd9023c	-0.026490323
154	0xbc1515cc	-0.009099435
155	0xbb8ab228	-0.0042326637
156	0x3c39156c	0.011296611
157	0xbcf3a203	-0.02974034
158	0xbd812429	-0.06305725
159	0xbc0238b2	-0.0079480875
160	0xbd814236	-0.06311457
161	0xbd0eb751	-0.034842793
162	0x3cbeddb7	0.023299081
163	0xbd659c45	-0.056057233
164	0x3c123af3	0.008925187
165	0x3d4a8e26	0.04945197
166	0xbbb99031	-0.005662941
167	0xbd1f47d7	-0.03888687
168	0x3d562e37	0.052290168
169	0x3b633f1b	0.0034675065
170	0xbcdd5f68	-0.027023032
171	0xbcf3dff9	-0.029769884
172	0x3b19d8f4	0.0023475261
173	0xbc927ce4	-0.017881818
174	0x3d621810	0.05519873
175	0x3cac82cc	0.021058463
176	0x3cc59fb9	0.024124013
177	0x3aa53b02	0.0012606087
178	0xbc785621	-0.0151572535
179	0xbc0d5b8a	-0.008627782
180	0x3bb9bd96	0.0056683524
181	0x3c247049	0.0100365365
182	0xbca4da34	-0.020123579
183	0x3c8968c7	0.016773595
184	0x3cd3f43b	0.025873294
185	0x3bb458ba	0.005503741
186	0xbd717225	-0.058946747
187	0xbcbfe1d0	-0.023423105
188	0xbd725123	-0.05915941
189	0xbd5c696d	-0.05381148
190	0x3beb4cbc	0.0071807783
191	0xbd03757f	-0.032094475
192	0x3d6eeaeb	0.058329504
193	0x3d1584ec	0.036503717
194	0x3d7112a0	0.058855653
195	0x3c9fd58c	0.019511007
196	0x3d64654a	0.05576066
197	0x3d1b8800	0.037971497
198	0x3c3a5149	0.011371919
199	0xbd7c2341	-0.06155706
200	0x3c297d5d	0.01034483
201	0x3d8a3dac	0.06750044
202	0x3d0f91fb	0.035051327
203	0xbc4d8173	-0.01254307
204	0x3d024327	0.031802323
205	0x3ca3b2ed	0.01998278
206	0x3d8b9563	0.06815603
207	0x3d3d2413	0.04617698
208	0x3b7bbae5	0.0038410958
209	0x3d5f6ff0	0.05455011
210	0xbc796e64	-0.015224073
211	0xbc0503c4	-0.008118574
212	0xbd1700cc	-0.036865994
213	0xbcd2f0be	-0.02574956
214	0xbb9480d4	-0.004531959
215	0xbbe6efe4	-0.00704764
216	0x3d26bad4	0.040705517
217	0xbd5a1e4f	-0.05325156
218	0x3d14278a	0.03617052
219	0xbd874fa5	-0.06606988
220	0x3c51eabc	0.012812313
221	0xbca77558	-0.020441696
222	0xbc253a93	-0.010084766
223	0x3cc250b0	0.023720115
224	0x3d28bcf3	0.04119582
225	0xbdbfe18b	-0.09369191
226	0xbbf22043	-0.0073891
227	0xbc8c9073	-0.017158723
228	0xbc58d725	-0.013234888
229	0xbb8c080f	-0.0042734216
230	0x3c1ff870	0.009763822
231	0xbba5e08b	-0.005062168
232	0x3c965b94	0.018354215
233	0x3d795839	0.06087515
234	0xbb94e553	-0.004543939
235	0x3ce28cc3	0.027655011
236	0x3c7df503	0.01550031
237	0xbc5763a0	-0.013146311
238	0x3d2f6dde	0.042829387
239	0xbd48f08e	-0.049057536
240	0x3d3a408b	0.04547171
241	0x3c8d9c68	0.017286494
242	0x3d05ded0	0.032683194
243	0xbcfd48a1	-0.030918421
244	0x3c9b68c5	0.018970856
245	0xbda4d5d0	-0.08048594
246	0x3cb5b4d2	0.022180948
247	0x3ceab4f2	0.028650735
248	0xbd1ae4aa	-0.037815727
249	0x3caa87cc	0.020816706
250	0xbd929a99	-0.071583934
251	0xbcc72f04	-0.024314411
252	0xbd462e5e	-0.048384063
253	0xbd2f5bfd	-0.042812336
254	0xbc3852ee	-0.011250241
255	0xbc23e9e9	-0.010004499

action_model._continuous_distribution.mu.bias f4 [3]
0	0x3b2ab2fb	0.0026046622
1	0x3cd6f815	0.026241342
2	0x3bb20383	0.0054325475

exp_avg f4 [128, 9]
0	0x3b104c6b	0.0022018205
1	0x3c104ece	0.008807851
2	0x3bd87636	0.0066058887
3	0x3a2210d8	0.00061823195
4	0x3701296c	7.6986435e-06
5	0x3b801423	0.0039086505
6	0xbb458798	-0.0030140635
7	0xbaa67bf4	-0.0012701736
8	0xba8649be	-0.0010245366
9	0x386aa534	5.5943805e-05
10	0x396ae6f6	0.00022402019
11	0x39302d3a	0.00016801516
12	0xb8d01289	-9.921665e-05
13	0x39eda869	0.00045329638
14	0x390f8138	0.0001368568
15	0x37c422db	2.3381252e-05
16	0xb8392434	-4.4141154e-05
17	0x399b6211	0.0002963697
18	0xb86220ae	-5.3913034e-05
19	0xb961ed76	-0.00021546133
20	0xb9297218	-0.00016159599
21	0x397d50fb	0.00024158128
22	0x39b93a24	0.00035329268
23	0xb9d4e029	-0.00040602803
24	0x39ae89f3	0.00033290646
25	0xb74c63b1	-1.2182559e-05
26	0x39a863b9	0.00032117756
27	0xb9c91e50	-0.00038360292
28	0xbac9263f	-0.0015346481
29	0xba96dcb2	-0.0011509864
30	0x39d91058	0.00041401642
31	0xbaa8a861	-0.0012867564
32	0xba8b6f7f	-0.0010638087
33	0x390fba99	0.00013707056
34	0xb9eed573	-0.0004555393
35	0xbacece99	-0.0015778124
36	0xbac457e3	-0.0014979806
37	0xbbc44b39	-0.0059904126
38	0xbb93386a	-0.004492809
39	0x38bab353	8.902573e-05
40	0xbac24831	-0.001482254
41	0xbb755283	-0.0037433214
42	0x390a3fe9	0.00013184514
43	0x3a067f89	0.00051306986
44	0x39291492	0.00016124759
45	0x38792ea1	5.9409653e-05
46	0x397928c1	0.00023761672
47	0x393ade91	0.00017821255
48	0xb8827812	-6.221248e-05
49	0x39356ca5	0.00017301978
50	0x39580557	0.00020601354
51	0x390798cb	0.00012931523
52	0x365e62c3	3.3138065e-06
53	0xb8a48e5f	-7.846648e-05
54	0x38973b13	7.2112445e-05
55	0x39966d43	0.00028691636
56	0x3961a3d5	0.00021518704
57	0xba07c4a9	-0.0005179146
58	0x3a7ce8c0	0.00096477196
59	0x39853782	0.00025409093
60	0x396d5c17	0.00022636387
61	0xb9f29659	-0.00046269855
62	0x3b0466c4	0.0020202855
63	0xbae78e1a	-0.0017666251
64	0xbbe7a602	-0.00706935
65	0xbbadbc86	-0.0053020148
66	0xba82b0c7	-0.0009970897
67	0x3adeaadb	0.0016988175
68	0xbb371996	-0.0027938834
69	0x3b10249e	0.0021994482
70	0x3b3e5969	0.0029044992
71	0x39ba1e78	0.00035499386
72	0xb8d29554	-0.00010041395
73	0xb9d2ea64	-0.00040228956
74	0xb99e2ffa	-0.00030171854
75	0x3adf6fce	0.001704687
76	0xbb840f34	-0.0040301327
77	0xbb0d93d1	-0.0021602998
78	0xbb59cab9	-0.0033232404
79	0xba039e8d	-0.00050208793
80	0xbaaeb99a	-0.001333046
81	0xbacb5afd	-0.0015514788
82	0xbbcb7d8c	-0.0062100347
83	0xbb989e28	-0.0046575256
84	0xb9dbd004	-0.0004192592
85	0xba989fcf	-0.0011644306
86	0xbb305078	-0.0026903432
87	0x3b80d9ce	0.0039322143
88	0x3a4dcf3b	0.0007851009
89	0x37f3ed7d	2.9078446e-05
90	0x3a665a3a	0.00087872485
91	0x3b6661a5	0.0035153416
92	0x3b2cc940	0.0026365072
93	0x398c5a98	0.00026770378
94	0x3a0ea87a	0.0005441975
95	0x3ad74d56	0.0016426246
96	0xba94a0a0	-0.0011339374
97	0xb96aefbb	-0.00022405286
98	0xbab88172	-0.0014076664
99	0xba74b21a	-0.00093344005
100	0xbb74b581	-0.003733963
101	0xbb37881d	-0.0028004714
102	0xba5d1ca2	-0.00084347476
103	0x3acc7cb0	0.0015601125
104	0xba79bb45	-0.00095265015
105	0x3afd20df	0.0019312165
106	0x3ad80b85	0.0016482925
107	0x39c981e0	0.00038434472
108	0xba03f523	-0.00050337816
109	0xbb040f40	-0.0020150691
110	0xbac616d4	-0.0015113004
111	0xba6ebd29	-0.00091071666
112	0x3b07705e	0.0020666341
113	0xba0c5e4c	-0.00053546275
114	0x39830ced	0.00024995898
115	0x39ab405b	0.0003266361
116	0x39b9aade	0.00035413256
117	0xbace8878	-0.0015757224
118	0xbbce8626	-0.006302613
119	0xbb9ae49b	-0.004726959
120	0xb896a367	-7.1829934e-05
121	0x39983aba	0.00029035454
122	0xbb666cfe	-0.003516018
123	0xb99ee7d3	-0.0003030883
124	0x3a89596e	0.0010478923
125	0xb9855064	-0.00025427632
126	0x3ab71d3d	0.0013970506
127	0x3bb70235	0.00558498
128	0x3b8941a6	0.004188734
129	0xb9c9f0f5	-0.00038517234
130	0x3ae3a266	0.0017367124
131	0x3b5eec84	0.0034015486
132	0x3a795a86	0.0009512085
133	0xb9d6244b	-0.000408443
134	0xb9970c93	-0.00028810333
135	0xbb0cd56a	-0.002148951
136	0xbc0cd49f	-0.008595615
137	0xbbd33eee	-0.006446711
138	0xb93dc65d	-0.0001809834
139	0xba024445	-0.00049692794
140	0xbb916023	-0.004436509
141	0xb8d489a9	-0.00010134589
142	0x3b044bff	0.0020186899
143	0x38fcd620	0.0001205618
144	0x390e38f1	0.00013563388
145	0x3a0e2d37	0.00054236077
146	0x39d543d4	0.00040677062
147	0xb835afa6	-4.3317348e-05
148	0xb9cdf735	-0.0003928483
149	0x39b9a048	0.00035405369
150	0x39df3b18	0.00042577903
151	0x3999bceb	0.0002932319
152	0xba32c981	-0.00068201876
153	0x3985a2c2	0.00025489
154	0x3a858a01	0.0010188223
155	0x3a484f05	0.00076411694
156	0xb8d2cda2	-0.000100518824
157	0xb6634bde	-3.3869796e-06
158	0x39d38d2b	0.00040350234
159	0x396136ae	0.00021478042
160	0xba477559	-0.0007608734
161	0xb881e3cd	-6.1936305e-05
162	0xb98e2005	-0.00027108207
163	0xba8e3919	-0.0010850757
164	0xba5555a5	-0.0008138067
165	0x39d83bbe	0.00041243242
166	0xba478ed1	-0.0007612529
167	0xba9531b9	-0.0011382616
168	0x390734e9	0.00012894314
169	0x38b77b8f	8.7491346e-05
170	0x3a8966af	0.0010482873
171	0x3778defd	1.483387e-05
172	0x387ab0e5	5.976939e-05
173	0x383c049d	4.482699e-05
174	0x37340c0a	1.0731639e-05
175	0x385595fc	5.092284e-05
176	0x372c68d2	1.0276404e-05
177	0xb8b07a42	-8.415106e-05
178	0x393a75b2	0.00017782187
179	0xb90ce3a6	-0.00013436246
180	0x3af58a86	0.00187333
181	0x3bf58ccb	0.0074935905
182	0x3bb82999	0.005620193
183	0x39c483e8	0.0003748231
184	0x3b097434	0.0020973803
185	0x3b54687c	0.003241091
186	0x38f57ad1	0.00011705387
187	0xba8b5184	-0.0010629152
188	0xbacd907d	-0.001568332
189	0xbb83a305	-0.004017236
190	0xbc83a2a7	-0.01606877
191	0xbc4573f9	-0.012051576
192	0xba8bf1c5	-0.0010676911
193	0xba97caf4	-0.001158087
194	0xbbf7dbc1	-0.0075640385
195	0x3b3c9075	0.0028772627
196	0x3b88c19b	0.00417347
197	0x3b89acaf	0.0042014937
198	0xb9a875c9	-0.00032131214
199	0xbaa8f68d	-0.0012890861
200	0xba7d71cd	-0.0009668142
201	0xba38d5f4	-0.00070509245
202	0x3b221c13	0.0024735972
203	0xba7fdc26	-0.00097602827
204	0x3a532b7c	0.0008055491
205	0xb94be2a5	-0.0001944402
206	0x3b35019c	0.0027619367
207	0x3b16dcf7	0.002301989
208	0x3c16d269	0.009205439
209	0x3be23b9d	0.006904079
210	0x3a0ac58a	0.0005293718
211	0x3ac44986	0.0014975525
212	0x3b82d248	0.0039923526
213	0x3a15a068	0.00057078013
214	0xba7a23aa	-0.00095420575
215	0x3a87bd33	0.0010356068
216	0x38b62190	8.684688e-05
217	0x39b606cd	0.00034718812
218	0x39888519	0.00026039107
219	0x380e5de6	3.3942888e-05
220	0xb8b440bf	-8.595129e-05
221	0x393d74b2	0.00018067917
222	0x38aba3e3	8.184442e-05
223	0x3848e4cb	4.7896796e-05
224	0xb97054cd	-0.00022919774
225	0xb8761a84	-5.8675665e-05
226	0xb9761460	-0.00023467978
227	0xb9388f45	-0.0001760098
228	0xb856eed9	-5.124402e-05
229	0x3809a798	3.281943e-05
230	0xb899f975	-7.3420735e-05
231	0x38483006	4.772844e-05
232	0x389adec7	7.384788e-05
233	0x390df118	0.00013536622
234	0x39c09bd6	0.000367372
235	0x3ac08dc3	0.0014690686
236	0x3a906a53	0.0011018015
237	0xb9718dab	-0.00023036326
238	0x3b047974	0.0020213993
239	0x39c87283	0.0003823229
240	0xb8dfecd6	-0.00010677583
241	0xba8a9d8a	-0.0010575515
242	0x3a5b3257	0.0008361688
243	0xb99fa142	-0.0003044699
244	0xba9fdbf8	-0.0012196293
245	0xba6fc9f0	-0.00091472175
246	0xb9608754	-0.00021412718
247	0x39f76e3c	0.00047193642
248	0xba253017	-0.00063014164
249	0x3b0940d3	0.002094318
250	0x374b56ff	1.2119998e-05
251	0x3af2d0c8	0.0018525356
252	0xba8a85a3	-0.0010568391
253	0xbb8a805a	-0.0042267265
254	0xbb4fc088	-0.003170045
255	0xb9ebb9bf	-0.00044961084

exp_avg_sq f4 [128, 9]
0	0x3a497ca2	0.0007686113
1	0x3b5e86ae	0.0033954787
2	0x3af95e5c	0.0019025314
3	0x3a36c622	0.0006972273
4	0x39def77e	0.00042527536
5	0x3a688ad1	0.0008870783
6	0x39492db5	0.00019185881
7	0x3922415a	0.0001547387
8	0x3a6113db	0.00085860275
9	0x3608898b	2.034564e-06
10	0x370e42e2	8.479432e-06
11	0x369ed5d9	4.733662e-06
12	0x35f2ab3e	1.8080243e-06
13	0x35ab6834	1.277082e-06
14	0x360626a1	1.999004e-06
15	0x35cb9eac	1.5170858e-06
16	0x34e39f4c	4.239795e-07
17	0x36fa6bae	7.463116e-06
18	0x3577efd5	9.236367e-07
19	0x3687ed83	4.0509635e-06
20	0x3616f0aa	2.2491827e-06
21	0x356dcfe2	8.859189e-07
22	0x354cb379	7.625709e-07
23	0x3599d904	1.1462548e-06
24	0x3494f464	2.7744966e-07
25	0x348c9549	2.618565e-07
26	0x35bb16fc	1.3939275e-06
27	0x3701436d	7.704698e-06
28	0x381af0e5	3.694081e-05
29	0x37a8d91a	2.0128256e-05
30	0x36dfe248	6.6722605e-06
31	0x36d5ed9c	6.375556e-06
32	0x3721daa8	9.647258e-06
33	0x3610d0eb	2.1579278e-06
34	0x35f5f615	1.8325542e-06
35	0x3801fcb5	3.099135e-05
36	0x3903f1a5	0.00012583153
37	0x3a11a7c4	0.000555631
38	0x39a37f5d	0.00031184676
39	0x38f2b580	0.00011573266
40	0x389e67b7	7.5533455e-05
41	0x391bfebf	0.00014876852
42	0x38076c70	3.22875e-05
43	0x37d67433	2.5564897e-05
44	0x391377c2	0.00014063626
45	0x33e957ca	1.0865877e-07
46	0x351b8410	5.7934176e-07
47	0x34aaab99	3.178982e-07
48	0x33a4c70f	7.673054e-08
49	0x33fd37bf	1.1791371e-07
50	0x342ec7e5	1.6277734e-07
51	0x3336c677	4.255568e-08
52	0x32f6dd29	2.8738741e-08
53	0x3413dbeb	1.3770448e-07
54	0x38b9c9c7	8.8590714e-05
55	0x39c95cd9	0.00038406884
56	0x39616624	0.00021495722
57	0x38bec432	9.09645e-05
58	0x3823f441	3.9089708e-05
59	0x38d07cbf	9.941449e-05
60	0x37903f1a	1.7195522e-05
61	0x378941ef	1.6362375e-05
62	0x38d4dcbc	0.00010150063
63	0x3a4bf7b0	0.0007780744
64	0x3b5daeb8	0.0033826064
65	0x3af948b9	0.0019018865
66	0x3a302e16	0.00067207345
67	0x39c6b067	0.00037896933
68	0x3a5dbfe5	0.00084590755
69	0x3952ee2d	0.00020115888
70	0x39316c14	0.00016920298
71	0x3a5a7bdc	0.00083344965
72	0x395250bd	0.00020057238
73	0x3a84bd60	0.0010127239
74	0x3a149a62	0.0005668757
75	0x38f8960b	0.00011853509
76	0x395f6bc1	0.00021307079
77	0x39941ca7	0.00028250107
78	0x388a684e	6.599781e-05
79	0x385f0ef1	5.318126e-05
80	0x398c42eb	0.0002675274
81	0x39bb563b	0.00035731666
82	0x3ad2328a	0.001603679
83	0x3a6b8953	0.00089850015
84	0x39a814be	0.0003205891
85	0x3931c61e	0.0001695384
86	0x39daaf75	0.00041710926
87	0x38bb6ef4	8.9375215e-05
88	0x388f0197	6.8190675e-05
89	0x39cc9874	0.00039023499
90	0x3900ed1e	0.00012295364
91	0x3a0bea2a	0.00053373224
92	0x399d264b	0.00029973904
93	0x38cf3d3e	9.8819364e-05
94	0x38815c14	6.16835e-05
95	0x390a2fe2	0.00013178543
96	0x37e26313	2.6987434e-05
97	0x37a70574	1.991049e-05
98	0x38c5d709	9.4337454e-05
99	0x38f69373	0.00011757659
100	0x3a221069	0.0006182255
101	0x39b63e9c	0.00034760393
102	0x38898355	6.5571316e-05
103	0x38d6ccc8	0.00010242459
104	0x3937aa66	0.00017515718
105	0x38278b4c	3.9945633e-05
106	0x380b8246	3.326151e-05
107	0x391d69f8	0.00015012163
108	0x3a017111	0.00049378077
109	0x3b0d6ff9	0.0021581633
110	0x3a9ee5c9	0.0012122925
111	0x39da5844	0.00041645963
112	0x3981fbf1	0.00024792508
113	0x3a10c44a	0.00055224134
114	0x39050712	0.00012686502
115	0x38be7871	9.08234e-05
116	0x39f07611	0.00045864334
117	0x3958f40e	0.00020690283
118	0x3a7a75bd	0.00095542875
119	0x3a0c67b1	0.00053560274
120	0x391cfa95	0.00014970668
121	0x39081612	0.00012978193
122	0x39842c69	0.0002521009
123	0x388b51ce	6.643274e-05
124	0x38508c3b	4.9721664e-05
125	0x3988072c	0.00025945285
126	0x3912ca67	0.00013999046
127	0x3a21e179	0.00061752606
128	0x39b5ccff	0.00034675744
129	0x38f1b7f2	0.00011526038
130	0x38ba0e0e	8.871789e-05
131	0x3928becc	0.00016092806
132	0x381bbe93	3.7132366e-05
133	0x3807645c	3.2279975e-05
134	0x393c047a	0.00017930745
135	0x39a0ed4d	0.0003069438
136	0x3ab377f6	0.0013692367
137	0x3a49643e	0.0007682479
138	0x3987fa30	0.0002593561
139	0x3934bfe8	0.00017237628
140	0x39b7cccf	0.00035057074
141	0x389bb772	7.425145e-05
142	0x3884a7ce	6.3255065e-05
143	0x399310de	0.00028050592
144	0x35cea3ea	1.5395901e-06
145	0x370904c6	8.166948e-06
146	0x36987d57	4.5445445e-06
147	0x358e366b	1.0595662e-06
148	0x365fb98b	3.333759e-06
149	0x3650ab8f	3.1094276e-06
150	0x359f635f	1.1875344e-06
151	0x36179c1a	2.2591616e-06
152	0x3702427e	7.764085e-06
153	0x382d3f21	4.1305208e-05
154	0x3934f0aa	0.00017255792
155	0x38ca8530	9.656919e-05
156	0x3846a0b2	4.7356538e-05
157	0x3813d453	3.5245273e-05
158	0x3837fc4c	4.386557e-05
159	0x37690fbc	1.3891546e-05
160	0x373caf40	1.1246477e-05
161	0x38948243	7.081453e-05
162	0x36b85ea4	5.494645e-06
163	0x37e5e2a8	2.7404472e-05
164	0x377ea666	1.5178322e-05
165	0x3706c428	8.032694e-06
166	0x37399333	1.1061132e-05
167	0x371c9b0f	9.334427e-06
168	0x36a67b8c	4.9615683e-06
169	0x3653c46f	3.155579e-06
170	0x37e9fe6a	2.7894235e-05
171	0x3795a5bd	1.7839362e-05
172	0x389c93f4	7.466218e-05
173	0x382c0cad	4.10198e-05
174	0x37affd3f	2.0979553e-05
175	0x3704b7f3	7.910642e-06
176	0x378f37e4	1.7072955e-05
177	0x3663eacd	3.3962308e-06
178	0x364017b3	2.8624024e-06
179	0x37d0f757	2.4910709e-05
180	0x39b5ef85	0.00034701466
181	0x3ac16543	0.001475491
182	0x3a58bc81	0.00082678354
183	0x39a51666	0.0003148794
184	0x3927de7f	0.00016009247
185	0x39b557af	0.0003458834
186	0x3893224d	7.015895e-05
187	0x388e0542	6.772067e-05
188	0x39ae8942	0.0003329013
189	0x3a8ca5a4	0.0010730517
190	0x3ba0c7af	0.0049066166
191	0x3b348a0c	0.0027548103
192	0x3a6393de	0.0008681397
193	0x3a13cbed	0.0005637992
194	0x3aa5745b	0.0012623178
195	0x39659e1f	0.00021898047
196	0x3950807c	0.0001988429
197	0x3a8fe3ce	0.0010977925
198	0x39a2f4f2	0.00031081546
199	0x3aab0636	0.0013048116
200	0x3a405c2c	0.00073379534
201	0x39a1fc64	0.0003089636
202	0x392b6033	0.00016343668
203	0x39b793d4	0.0003501462
204	0x38a052ac	7.6447934e-05
205	0x388926a2	6.539865e-05
206	0x39d41139	0.00040448623
207	0x3a3f1aa2	0.00072900404
208	0x3b4a8912	0.0030904454
209	0x3ae39950	0.0017364416
210	0x3a2c196d	0.0006565068
211	0x39b09e6e	0.00033687375
212	0x3a44dc05	0.0007509592
213	0x3903a987	0.00012556287
214	0x39147c11	0.00014160598
215	0x3a5c82c3	0.0008411819
216	0x35b73d99	1.365249e-06
217	0x36c9ee36	6.017998e-06
218	0x365a5be9	3.253803e-06
219	0x35954144	1.112036e-06
220	0x357d385f	9.4331875e-07
221	0x35c0c116	1.436131e-06
222	0x34b8d1f5	3.4425435e-07
223	0x34b05055	3.2841004e-07
224	0x35c7430a	1.4846166e-06
225	0x34af8dbf	3.2699424e-07
226	0x35e47980	1.7022685e-06
227	0x357a997a	9.3355595e-07
228	0x34698342	2.1747567e-07
229	0x347aed3e	2.3369373e-07
230	0x34d054dd	3.8804765e-07
231	0x33d0c7c0	9.722089e-08
232	0x339931ac	7.133653e-08
233	0x34bc9da9	3.5132442e-07
234	0x3772f1fb	1.44806645e-05
235	0x389e3c01	7.545204e-05
236	0x382f479d	4.1789946e-05
237	0x3764d502	1.3639454e-05
238	0x37e24221	2.6972093e-05
239	0x37e99d41	2.7848992e-05
240	0x36eb87bd	7.019348e-06
241	0x3725221c	9.842708e-06
242	0x38486e91	4.778669e-05
243	0x3878a011	5.927688e-05
244	0x398823f8	0.0002596674
245	0x3915eb89	0.00014297491
246	0x388b083c	6.62957e-05
247	0x38012c8b	3.079748e-05
248	0x38869e98	6.419158e-05
249	0x37852ef1	1.5876694e-05
250	0x374f9e7d	1.2375062e-05
251	0x389d4c36	7.500539e-05
252	0x39161254	0.00014311943
253	0x3a1ff327	0.0006101601
254	0x39b3e4bc	0.0003431196
255	0x38eb0a68	0.000112076115

exp_avg f4 [128]
0	0x3b104ecf	0.002201963
1	0x386ae6f5	5.6005043e-05
2	0xb861ed75	-5.386533e-05
3	0xb9c9263f	-0.00038366203
4	0xbac44b38	-0.001497603
5	0x387928bf	5.9404174e-05
6	0x38966d3b	7.172903e-05
7	0xbae7a604	-0.0017673378
8	0xb8d2ea7c	-0.000100572564
9	0xbacb7d8d	-0.0015525088
10	0x3a6661a8	0.00087883556
11	0xba74b57d	-0.0009334905
12	0xba040f3b	-0.000503767
13	0xbace8626	-0.0015756532
14	0x3ab70234	0.0013962449
15	0xbb0cd49e	-0.0021489034
16	0x390e2d35	0.00013559016
17	0x39858a01	0.00025470558
18	0xb98e3917	-0.00027126886
19	0x377ab0e5	1.4942348e-05
20	0x3af58ccc	0.0018733977
21	0xbb83a2a7	-0.0040171924
22	0xb9a8f69a	-0.0003222719
23	0x3b16d26a	0.00230136
24	0x38b606cd	8.679703e-05
25	0xb8761460	-5.8669946e-05
26	0x39c08dc5	0.0003672672
27	0xb99fdbf3	-0.00030490718
28	0xba8a805c	-0.0010566819
29	0xba0a5a68	-0.0005277754
30	0xb9818d4a	-0.00024710066
31	0x39e8667d	0.00044326848
32	0xba2efe1d	-0.0006675439
33	0x388bdf8c	6.669675e-05
34	0xb9eb0a41	-0.00044830333
35	0xb9dad709	-0.00041740414
36	0x38cb9fe8	9.709579e-05
37	0xb8d541ab	-0.00010168863
38	0xb7c370f3	-2.3298408e-05
39	0x3a24377f	0.0006264373
40	0x3906438b	0.00012804398
41	0xb970ec75	-0.0002297627
42	0xba060ba9	-0.0005113432
43	0x384ba6cc	4.8554313e-05
44	0x3a6136fd	0.0008591263
45	0xba1c621f	-0.0005965549
46	0x383d259c	4.5096138e-05
47	0x3a0d62be	0.0005393437
48	0xbaedff80	-0.001815781
49	0x3942bd7b	0.00018571869
50	0x39e25c0b	0.00043174656
51	0x3a2bb75c	0.0006550455
52	0xb9844021	-0.00025224782
53	0xb908fa84	-0.00013063295
54	0xb69db940	-4.7005306e-06
55	0x3b2b4a9b	0.0026136998
56	0xb8d0a882	-9.9496e-05
57	0x37a29b6f	1.9384284e-05
58	0x38f4d549	0.00011674554
59	0xb8ce2749	-9.830163e-05
60	0xbaa973a3	-0.0012928139
61	0x3a05526c	0.0005085829
62	0xb9a87dc4	-0.0003213716
63	0xb832580e	-4.2520514e-05
64	0x39a5a170	0.00031591533
65	0xbadec7c1	-0.0016996787
66	0x3a3668c9	0.0006958363
67	0xba6f13dc	-0.0009120086
68	0x38a90e1b	8.061175e-05
69	0xb92d4319	-0.00016523561
70	0x37891695	1.6342188e-05
71	0xbafae4a6	-0.0019141629
72	0x3b5fa19f	0.0034123433
73	0x3824a2fc	3.9252438e-05
74	0xb8a7010d	-7.963376e-05
75	0xb9a2c936	-0.00031048962
76	0xb8666b05	-5.4935943e-05
77	0xb704bdaa	-7.911973e-06
78	0x3a30b141	0.000674028
79	0x3ad015cb	0.0015875635
80	0xb8a14664	-7.6901895e-05
81	0xb9a1cfe8	-0.00030863215
82	0x3a3d1ea5	0.0007214344
83	0xbac3a885	-0.0014927542
84	0x3a699fc2	0.00089120504
85	0xb91886a0	-0.00014546001
86	0xbafc18e3	-0.0019233491
87	0xb89c4569	-7.451588e-05
88	0x384ebd69	4.929063e-05
89	0x3a1aa19c	0.00058987155
90	0x39022c8a	0.00012414358
91	0x38606b9c	5.350598e-05
92	0xb812053b	-3.4813984e-05
93	0x3ab26a4f	0.0013612005
94	0x3ac0bf51	0.0014705454
95	0x3a2d5e57	0.0006613484
96	0x3abbf7ef	0.0014340858
97	0xbaab6acc	-0.0013078093
98	0x394e96fc	0.00019701937
99	0xb81e71b5	-3.7776033e-05
100	0xba9cdd1f	-0.0011967755
101	0xbacd63f1	-0.0015670044
102	0xb8b5c751	-8.667878e-05
103	0x3ab7ac99	0.001401323
104	0x3b4faa7a	0.0031687305
105	0x3ab79f08	0.0014009187
106	0xb936b384	-0.00017423747
107	0x39135c40	0.00014053378
108	0xb81c7504	-3.7302278e-05
109	0xb97b459c	-0.00023963157
110	0x3a5c6668	0.00084075937
111	0x38284194	4.0115396e-05
112	0xb8d72c3f	-0.000102602404
113	0x399da1b9	0.00030065866
114	0x396be2c2	0.0002249582
115	0x3b0ff841	0.002196804
116	0x38b77dcb	8.749551e-05
117	0x399bc3a2	0.00029709662
118	0xb91f8a9c	-0.00015215058
119	0xb8ce40a5	-9.8348864e-05
120	0xba35cf47	-0.0006935489
121	0xb99261bb	-0.00027920105
122	0x3a8f2b55	0.0010922948
123	0x3a3838e0	0.0007027518
124	0x37955c15	1.7805063e-05
125	0x3a9b0726	0.0011827692
126	0xb6ff02e7	-7.59993e-06
127	0x384d7637	4.8985905e-05

exp_avg_sq f4 [128]
0	0x395e121c	0.00021178316
1	0x350dd3ab	5.283461e-07
2	0x348740a6	2.5192747e-07
3	0x36181bce	2.266595e-06
4	0x38118b98	3.47007e-05
5	0x331b0826	3.609616e-08
6	0x37c8d907	2.394292e-05
7	0x395d9f45	0.00021135535
8	0x3884660f	6.3132604e-05
9	0x38d1bde5	0.00010001267
10	0x380bcee1	3.3332853e-05
11	0x38220755	3.863064e-05
12	0x390d52f1	0.00013477706
13	0x387a0428	5.9608516e-05
14	0x3821bd97	3.856196e-05
15	0x38b34294	8.547786e-05
16	0x3508ab0d	5.091286e-07
17	0x373461db	1.075162e-05
18	0x35e383f4	1.6951221e-06
19	0x369abd43	4.6115906e-06
20	0x38c10592	9.203995e-05
21	0x39a09f95	0.00030636476
22	0x38ab00c9	8.154062e-05
23	0x394a6c5d	0.0001930459
24	0x34caa3c5	3.774459e-07
25	0x33e1e662	1.0519285e-07
26	0x369ce672	4.6759897e-06
27	0x378697d7	1.604475e-05
28	0x381fee25	3.8130343e-05
29	0x38c47e30	9.3695126e-05
30	0x35c1feb8	1.4453753e-06
31	0x37c3cc7b	2.334103e-05
32	0x379801d5	1.8120665e-05
33	0x3729af73	1.0114035e-05
34	0x39086cbe	0.0001301048
35	0x3780f0bc	1.537089e-05
36	0x3637fa15	2.7414692e-06
37	0x35ab39ec	1.275735e-06
38	0x34b6f816	3.4080648e-07
39	0x3885734e	6.3634114e-05
40	0x3664c5e9	3.4089846e-06
41	0x3898df8f	7.289566e-05
42	0x38a641c7	7.927749e-05
43	0x3600e555	1.9206975e-06
44	0x3890e266	6.908625e-05
45	0x37e1565e	2.6862308e-05
46	0x35eaeaac	1.7502657e-06
47	0x3799f6b5	1.8353903e-05
48	0x386a54b7	5.5868844e-05
49	0x375caaad	1.315276e-05
50	0x3816db74	3.596717e-05
51	0x3751c397	1.250291e-05
52	0x35334703	6.678603e-07
53	0x346085c7	2.0910294e-07
54	0x358753f3	1.0082716e-06
55	0x394dd63c	0.00019630132
56	0x35d271d1	1.5679344e-06
57	0x34efda7e	4.4676193e-07
58	0x37dfeddc	2.6694433e-05
59	0x359016b4	1.0735444e-06
60	0x37a2657a	1.9359159e-05
61	0x38ba55cb	8.885151e-05
62	0x396307a0	0.00021651248
63	0x350d6741	5.267685e-07
64	0x37625472	1.3490311e-05
65	0x380b7add	3.3254608e-05
66	0x37940993	1.7647433e-05
67	0x375725ad	1.2823771e-05
68	0x35a9ac21	1.2641577e-06
69	0x368e4b1f	4.240675e-06
70	0x35dfeeb0	1.6684262e-06
71	0x38fc5893	0.000120327946
72	0x398c35fc	0.00026743102
73	0x35af6184	1.3066897e-06
74	0x351a4887	5.747501e-07
75	0x35fd0661	1.8851825e-06
76	0x335fcdba	5.210834e-08
77	0x33242fc8	3.8227682e-08
78	0x370eea28	8.518378e-06
79	0x394e9a65	0.00019703207
80	0x3373dae8	5.677694e-08
81	0x37af1588	2.0871652e-05
82	0x378badeb	1.6651078e-05
83	0x3928516a	0.00016052058
84	0x378163e2	1.542451e-05
85	0x33f46464	1.13803964e-07
86	0x38396bc1	4.420779e-05
87	0x35d97215	1.6200962e-06
88	0x3500cffd	4.798638e-07
89	0x37c40d55	2.3371229e-05
90	0x369aebb4	4.616997e-06
91	0x361edb32	2.3671423e-06
92	0x34f5f382	4.581198e-07
93	0x385d2ccd	5.273223e-05
94	0x381e9c9c	3.781599e-05
95	0x38cc3500	9.73735e-05
96	0x38ec06bf	0.000112546135
97	0x388bf6bd	6.673995e-05
98	0x38916eb6	6.93476e-05
99	0x33e8a958	1.0834145e-07
100	0x38a931b0	8.067803e-05
101	0x39164ef1	0.00014334523
102	0x3401b47d	1.2079722e-07
103	0x38c3e32a	9.340637e-05
104	0x39acbe99	0.00032948403
105	0x383296f6	4.25791e-05
106	0x37009067	7.663016e-06
107	0x37231fe6	9.722984e-06
108	0x38416004	4.6104207e-05
109	0x3527f43b	6.256775e-07
110	0x389d6b58	7.506338e-05
111	0x35c87f60	1.4938232e-06
112	0x3801d8ca	3.0957897e-05
113	0x384891d1	4.7819518e-05
114	0x38e59557	0.00010947388
115	0x38a89143	8.037921e-05
116	0x383bf568	4.4812827e-05
117	0x3785db45	1.595694e-05
118	0x356ac12c	8.7452895e-07
119	0x37d642a2	2.5541816e-05
120	0x386ff1f6	5.7207384e-05
121	0x35b1939c	1.3230488e-06
122	0x377ff080	1.525518e-05
123	0x398608b7	0.00025564965
124	0x37233b67	9.729388e-06
125	0x3830b005	4.21256e-05
126	0x3415cdb1	1.3951536e-07
127	0x36505cdd	3.1048469e-06
