Assets/results/AIAgent/ARAgent/ARAgent-6928.pt (torch, 450015 bytes, 36 tensors)

network_body.linear_encoder.seq_layers.0.weight f4 [128, 9]
00000000: 81e3 bfbe c806 a2be fe85 99bd feb6 58bc
00000010: bbea 0cbe 4b4a 113e eb95 7bbd 292c cb3e
00000020: 0f71 babe bb56 bc3e c2ef 2ebd 3762 9b3e
00000030: 4392 c9be 59bb 6bbe b44f 043e 6826 ee3e
00000040: 461d b33e fb06 adbe c49c 683f 21a2 a5be
00000050: b34d 943e 11ab 9bbe 5e71 053d 21bb 273e
00000060: c1ce f63d de98 f63e e36f a43c 2870 4a3c
00000070: 77c7 6abd 20e2 713e d765 68bd 2353 9e3e
00000080: 5e4c fa3d 7438 793d 3266 02bd ede0 e73e
00000090: a42f cc3e cdf7 a9bd e24e edbc 928e 273e
000000a0: ec35 20bf 4adb 12bf 34fc 8fbe 5374 b2be
000000b0: 8dca 97be acdd 133d b98a 50be 512e 743d
000000c0: c55e d23e d40c 5d39 fcef 3a3e b0e3 a9be
000000d0: 2ede c83e 0236 6b3e 2eee 5b3d 99e3 b0bd
000000e0: 83a5 3f3f 7c91 b43e a382 a53d cffe af3d
000000f0: fe8b fb3e e7a8 c03e 2ced 0ebe f630 b2be
00000100: 355a 31be 3cd9 bcbe 547e d2be 7311 debd
00000110: e789 02bf 6181 a03e 2300 e3bd 0f0a 04be
00000120: 6786 d33e 6130 2fbe 2103 7d3e b56b 5ebd
00000130: 9095 4f3e 6b12 85bd 72f1 7c3e 1b10 8bbe
00000140: b550 81be 1077 d83e 08ee 3cbd 6f4a 46be
00000150: be85 77bc a93c ffbe 4799 97be 50e6 093f
00000160: d1a4 c73d 94a3 9b3e edd8 8abe f4c1 0f3e
00000170: b07c 483e 6de7 bebe 9ea4 763e 5bc2 a7be
00000180: 2e37 9b3d 1bf3 9fbd 6576 56be 65e3 f9bc
00000190: bfa4 acbd 68d4 02bf 0874 b1bd 57d6 be3e
000001a0: c906 f13e a1fd 91be 03e8 aa3e 1dfd 043f
000001b0: 645a 373f f75f 263d 3e75 a33c bd87 eebe
000001c0: 11b4 253e 830a 0cbd cf5d 2d3d 60b1 22bf
000001d0: 51b6 823e b170 cf3e 2a4a 48bd 8d44 3a3f
000001e0: 246a d9bc 7926 36bf 4bb0 16bd df71 6e3d
000001f0: cb1a 34be 529a ad3e c6f6 5bbe da3b 983e
00000200: b3cd 93be db92 4c3d 1095 7e3e 185a 00be
00000210: 6cb1 f8be a0cd 933e 65c6 393e 7e42 8dbe
00000220: e2d3 4ebb b39b 99bc a579 0cbf f20c 17be
00000230: a0bc 153f b572 92be 9be0 a53e e344 1d3c
00000240: 589b fe3e 3d9b 823d 7047 babe e575 1e3f
00000250: 1431 873e 40c3 b0bd d34e 71bd d59b 3d3f
00000260: da90 cd3e 5cfb 5b3e a4f6 483e 077e 92bd
00000270: 613f c73e ad4c 43be 24ec 31bf b211 32be
00000280: 91ab 21be de71 75be 929b 6e3e 10ae a33e
00000290: 3bf0 903e b389 0cbe 99cc 893e 90f0 443e
000002a0: dd5e 89be 3e1a 5bbd 3144 7f3e 8e06 8c3e
000002b0: 2f41 583e 2151 a0be 3dfa 543e 4fa3 0abf
000002c0: e954 4c3f 15e6 dc3e 6a8c 4a3f 1a16 bb3e
000002d0: e594 e3bd a46f 45be 56b4 64be 3c15 67be
000002e0: 797b bb3d 397d acbd 27d8 dcbe 6800 65be
000002f0: 4627 913e dd82 77be ff5a 243e 4257 21be
00000300: 5e5b 003f 2c74 6ebd 18ad ea3e 6c3e 6d3d
00000310: 735f f63e 7edf 803e 18e6 423e 6886 883e
00000320: 846b 443e e32f 0b3f 6348 8b3e ac88 9ebe
00000330: 171a 0c3f d1f4 f93d e30d 0ebe ef85 89be
00000340: a941 ce3d ddcb e73d 17e3 9ebc 1e36 013e
00000350: 956b a33e 6581 b7be 8e1b 1cbe 4b8f 8a3e
00000360: 8180 37be 4eb9 bdbd 195b 803e 1ab6 82bd
00000370: 290a 18be daf5 5a3e 2995 ffbe f3e7 1b3f
00000380: 47f7 853e 9945 183e 0f77 e23e e8b0 803e
00000390: 491e c93d 2acb 9c3e 07a7 febb 8ee6 56bd
000003a0: 1a83 98be 88a0 c53b 690d 0bbf 95c8 f23e
000003b0: 20fb 983e 0071 e3be 9f66 e83e 469a 223e
000003c0: d2b0 34be cc8a 093f ac69 a8be cc75 a1be
000003d0: db5c d13d ddab 233d fea4 8ebe ef25 80bd
000003e0: 4830 b0be 429f 513f 9b7c 1e3e ef3e c63e
000003f0: 2b17 d93e c100 123f 4a24 453e 61e4 7dbe
-0.3747826 -0.316458 -0.0749626 -0.0132272225 -0.13761418 0.14188497 -0.06142227 0.3968213
-0.36414382 0.3678492 -0.04270912 0.3034837 -0.393694 -0.23020686 0.1292103 0.46513677
0.3498327 -0.33794388 0.90864205 -0.32350257 0.2896553 -0.3040395 0.03257882 0.16379978
0.12051154 0.48163503 0.020072883 0.012355842 -0.05731913 0.23621416 -0.056737747 0.30922803
0.12221597 0.060844854 -0.031835742 0.45288792 0.39880097 -0.082992174 -0.028968278 0.1636298
-0.6258228 -0.5736586 -0.28122103 -0.34854373 -0.2964672 0.036100075 -0.20365418 0.059614483
0.41087928 0.00021080981 0.1825561 -0.33181524 0.3923201 0.22969821 0.053693943 -0.08637161
0.74861926 0.35267246 0.080815576 0.08593523 0.49130243 0.37628862 -0.13957661 -0.3480298
-0.17319568 -0.36884487 -0.41112006 -0.10843172 -0.5099167 0.31348708 -0.110840105 -0.12894462
0.41313478 -0.17108299 0.24708225 -0.054301936 0.20271897 -0.064976536 0.24701479 -0.27160725
-0.25256887 0.42278337 -0.04612544 -0.19364332 -0.01510757 -0.49850968 -0.2960913 0.53867054
0.09748233 0.30398238 -0.27118626 0.14038831 0.19578815 -0.3728594 0.24086234 -0.3276547
0.07578884 -0.078100406 -0.20943601 -0.030503938 -0.0842986 -0.51105356 -0.08664709 0.37272903
0.4707549 -0.28513816 0.33380136 0.5194872 0.716223 0.040618863 0.019953366 -0.46587935
0.16181971 -0.034189712 0.04232579 -0.635519 0.2552972 0.40515664 -0.048898853 0.7276085
-0.02653987 -0.71152455 -0.03678922 0.058214065 -0.17588346 0.339068 -0.21480855 0.29733163
-0.28867874 0.04994474 0.2486155 -0.12534368 -0.48572862 0.28867817 0.18142088 -0.27589792
-0.0031559397 -0.018751001 -0.54873115 -0.14751032 0.58490944 -0.2860314 0.32397923 0.009598943
0.49727893 0.063772656 -0.36382627 0.6189864 0.2640463 -0.08630991 -0.058913063 0.74065906
0.40149575 0.21482605 0.19625336 -0.07152944 0.38915542 -0.19072218 -0.69500947 -0.17389563
-0.15788104 -0.23969218 0.23301533 0.31968737 0.2830828 -0.13724403 0.26913908 0.19232392
-0.26830187 -0.053491823 0.24928357 0.2734875 0.21118616 -0.31311896 0.20798583 -0.5415544
0.7981706 0.4314429 0.79120505 0.365403 -0.11112384 -0.19280869 -0.22334418 -0.22566694
0.0915441 -0.08422322 -0.4313366 -0.22363436 0.28350276 -0.24171014 0.16050337 -0.15755942
0.50139415 -0.05821626 0.45835185 0.05792086 0.48119697 0.2517051 0.19033086 0.26665044
0.19181639 0.54369944 0.27203664 -0.30963647 0.5472731 0.12204898 -0.13872485 -0.26859996
0.100711174 0.11318181 -0.019395394 0.126183 0.31918016 -0.35840908 -0.15244886 0.2706245
-0.17920114 -0.0926386 0.25069502 -0.06382389 -0.14847626 0.21382847 -0.49918488 0.609008
0.2616522 0.148703 0.4423146 0.2513497 0.098202296 0.30623752 -0.007771376 -0.052465968
-0.29787523 0.0060310997 -0.5431734 0.47418657 0.29879093 -0.4442215 0.45390794 0.15879163
-0.17645577 0.5372741 -0.3289312 -0.31535184 0.10222789 0.039958823 -0.27860254 -0.06257235
-0.34411836 0.81883633 0.1547722 0.3871989 0.42400488 0.570324 0.19252124 -0.24794151

network_body.linear_encoder.seq_layers.0.bias f4 [128]
00000000: 5a6c 003d b24a a3bb b996 cbbb 2c52 073c
00000010: d67b 93bc bc1f 0b3d f46d 2dbb d685 12bb
00000020: 686f c6bc df80 c739 5098 743a 3311 6e3c
00000030: 3b78 bfbc b4a8 c1bb 01e1 673c bfb2 1a3c
00000040: 52e7 abbb ac38 dbbc caa9 56bb 679f 203c
00000050: 251f deb9 3cda 533d f44b 9439 0392 bf3c
00000060: 4f39 033d dab6 debc cac6 113d d357 15bc
00000070: 348a d93b 4586 813d 9404 7b3c ee47 883b
00000080: 6fa8 12bd 629e aebc 34cf 123c b21a 503b
00000090: 63ad 57b8 b9ad 0abc 174f c5bb 365d df3c
000000a0: 46e4 dabc cd82 e93c f27a ce3c 1cec 7c3c
000000b0: dcc4 71bc 91a3 d33c c5ad f03b 87a4 b33c
000000c0: 3ae1 a8bb 4e3f 3bba 6673 3b3c c7d6 1ebb
000000d0: 6f92 bbbb 9b2e f43c e026 053d 7ec4 3b3d
000000e0: 3d22 453d eb31 c8bb 55f8 ddbc 9600 f83a
000000f0: b647 733c 9e52 203b cdcb 8fbc 6f30 a43c
00000100: e567 c53b 194f c4bc 67a6 723b 8514 883c
00000110: 55d0 f33c 7ab5 f83c a765 adbb 6b78 fa3b
00000120: 83a8 8dbc b023 2abc 2eea 25bc 41c7 873c
00000130: 192f 483c c3be 14bc 1f44 02bc b1ff 1d3d
00000140: 8046 ffbb e83f f9bb 1de9 dabc bdba b4b9
00000150: 8866 bcbc e7d9 96bc c5db 27bc 6970 92bc
00000160: eded 133c 9df0 283c 1f80 43bb db00 073c
00000170: b572 ef3c ba9b 63bc 6085 6cbc cf3e 2a3d
00000180: c53e 90bb d56f a1ba 69b9 31bc 44e8 c8bc
00000190: 3253 62bc ddc9 27bc 9c8d 59bb 5b84 1a3c
000001a0: 2006 d93c 4a97 42bb 1250 46ba 8fa2 6fbc
000001b0: d85a 8abc 92c9 83bc 8935 c03c 4bf6 eb3c
000001c0: 14c1 a03c c25b d03c 24e5 283c b51a 203d
000001d0: 7378 0a3d 5019 a0bb d28b bd3b e4fc 9fbb
000001e0: 3e67 c1bc 12b6 b23c ec03 823c aaa0 4cbc
000001f0: 277e dc3c bc66 e53c 67f7 b53b b0e0 a33c
0.031353332 -0.0049832696 -0.006213036 0.008259337 -0.018003386 0.03396581 -0.0026463242 -0.0022357604
-0.024223045 0.00038052254 0.00093305577 0.014530468 -0.02337276 -0.0059100036 0.014152766 0.00944203
-0.0052460814 -0.026760422 -0.003275501 0.0098036295 -0.00042366344 0.051721796 0.0002828535 0.023385054
0.032037076 -0.0271868 0.03558997 -0.009115177 0.0066387895 0.06324438 0.015320916 0.0041589653
-0.035805162 -0.021315757 0.008960534 0.0031754193 -5.1421473e-05 -0.00846427 -0.006021391 0.027266126
-0.026720177 0.028504753 0.02520511 0.015437152 -0.014756408 0.02583483 0.0073449337 0.021929039
-0.005153802 -0.0007142917 0.011441087 -0.0024236904 -0.0057242434 0.02980738 0.032507777 0.045841686
0.048128355 -0.0061094663 -0.027095953 0.0018921073 0.01484864 0.0024463306 -0.017553234 0.020042626
0.006024348 -0.023963498 0.0037025453 0.016611347 0.029762426 0.030359972 -0.005291659 0.0076437495
-0.017292267 -0.010384485 -0.010126634 0.016574504 0.01221826 -0.009078684 -0.007950812 0.038573924
-0.0077903867 -0.007606495 -0.026722485 -0.00034471406 -0.02299811 -0.01841445 -0.010245268 -0.017875867
0.009028894 0.010311273 -0.0029831005 0.00823995 0.029229501 -0.013892109 -0.014436096 0.041563805
-0.004402014 -0.0012316654 -0.010847428 -0.024524815 -0.013813781 -0.010240999 -0.0033195978 0.00943097
0.026492178 -0.0029692226 -0.0007565032 -0.014626159 -0.01688902 -0.016087327 0.023463028 0.028803965
0.019623317 0.025434379 0.010308538 0.03908797 0.033806276 -0.00488583 0.00578449 -0.004882442
-0.0236088 0.021815334 0.01587101 -0.012489477 0.026915623 0.02800309 0.0055531743 0.0200046

network_body.linear_encoder.seq_layers.2.weight f4 [128, 128]
00000000: 0d98 873c 935c a63d 9010 ab3c c108 253b
00000010: 7ec3 ca3c 0e2e 513d f94a 69bc 6c38 35be
00000020: 3928 b73b f24e 663d 8333 c7bd 9e28 cebd
00000030: c0e0 14bc 4348 7e3e 17f9 afbd 249c f6bc
00000040: 9cf9 fab8 cbcb 0e3d 8e07 bc3c 1b1e e13d
00000050: 50d4 023d f287 9dba f919 31bd 6590 08be
00000060: 7a96 5cbd b6c5 ebbc ddfd 4d3e 1b79 84bd
00000070: ea52 1c3d 744d 883d 4e73 3e3e 05eb 8abd
00000080: a462 14bd 1e2d d33d e66d 72bb 88b6 a13d
00000090: 7e2a d6bd b9ba 1fbd f5db 713c 005d b6bb
000000a0: b95f 4a3b 9594 91bc d1cb b13d 4fcf 31bc
000000b0: a12b 9ebd c47e 3dbe a926 6abc 49d5 68bd
000000c0: 9fe5 18be ee11 6d3d e5bb a0bc 4ca0 933d
000000d0: 077c 903d e351 8f3d c24b e2bd 3fb1 49bd
000000e0: 7dea e5bc 9b95 2cbc b196 f5bd cced e8bd
000000f0: d986 89bd 5066 283e 40a1 dabc c7f8 853d
00000100: eafc 4dbe 87ac 053d 9de4 d83d f027 143d
00000110: b38f 223d 7333 8fbd e5a7 88bd a01e b6bd
00000120: 9b78 7f3d 77ba 8cbd 5d6a 9b3d d002 0a3d
00000130: 3a02 ae3d 1b49 cebd d656 56bc e358 723d
00000140: 0c3a 8dbd c67e fdbc 9c51 643d e302 0b3e
00000150: 353f 87be 9a26 493d 45b0 2a3d 989f 383d
00000160: 3200 07bd 31ef 053c 39bf 0bbe f90d b03d
00000170: c5f0 093d ff24 7b3d 12a0 38bd 7927 343d
00000180: b0c2 1d3a 2d20 87bd 5ca4 8e3d 6bd7 0bbe
00000190: fa82 b7bd 75e7 d5bc 52e8 633c 4a0f 043e
000001a0: 322e eebc 2e72 91bc 1b8d 8fbd c21b cdbc
000001b0: a83d 2fbe ddff 0ebe 6de8 a23d d62a 0e3d
000001c0: 3d12 3e3e 05ba 93bd 7706 11bc 49b1 073d
000001d0: 7a80 01bd 90f2 1b3d 35a5 8d3d eb92 86bd
000001e0: 7437 523d dd71 faba b244 9b3c 8b66 463e
000001f0: 7c59 a7bd dbc1 0bbd 8cd3 033e 857a e2bc
00000200: 0316 0b3d 22f9 c8bc b472 a03c d5b9 733b
00000210: 95e8 c33b a07d b43c c68b 0e3d db35 8abd
00000220: 5752 a33d 8ffd 22be 8ee4 a13b 5bd1 1e3e
00000230: 424b 273c 2388 633a d437 87bc 166a bcbd
00000240: e3c2 4dbd 3793 8f3d 08c3 cdbd ceeb 89bd
00000250: 5217 f4bc 9389 113e b7ad 2ebd 860c 263c
00000260: c909 d23d eba1 ccbc f5b1 02be dfd9 80bc
00000270: 02ee 873d 1652 5b3d a422 fcbc 86bb d1bd
00000280: 52e1 19be 1634 41be c186 16bd b602 59bc
00000290: 9953 9dbd e748 613d c705 c63b 749b 4f3c
000002a0: 71a2 853d 7540 17bd 9858 063e 1a4a 1bbd
000002b0: dba4 933d b341 493d 68f7 b53b 331b b8bd
000002c0: 2038 03be 933c 553d db42 ca3d 7290 7f3d
000002d0: 8f91 283d ba10 eebd 2c2a b4bd 6163 333e
000002e0: 4b86 f03d 67fd 16ba 7bd7 ffbd 12c7 d5ba
000002f0: 3f37 913c ccc6 9bbc f43d 53bd e006 08be
00000300: e9c4 1ebd eb06 29bc c3fb 00bd 0b63 2abd
00000310: fe87 89bc 2af3 71bc f5dd 8cbd 9b80 0e3c
00000320: 7929 96bd 4fa1 763d 63cf 053d 8487 693d
00000330: 807b 0f3c a4cc 60bd 0439 a439 68c2 08be
00000340: a3e3 19bd 12d6 4b3e e822 fcbc c738 0b3d
00000350: fa7f c33d ecd9 203d 3e90 4abd 4c5c 903d
00000360: dca2 3cbb ad25 cebd 5e45 0f3e ed86 763d
00000370: cd01 f6bc 35f8 523d 840f debd 2648 4c3d
00000380: f97c 013d cd9d d23c 6cf2 343e 2832 2ebd
00000390: 9e51 903c 1232 903b c056 98b9 ec8d c13d
000003a0: 1e4a f3bc eba0 053e 439c 0dbd 2369 a3bc
000003b0: 85b6 953c 43c6 8cbc 08a6 54bd 35ab 03bc
000003c0: a7dd f03c 9eab 8c3c a18e d93d 30fa de3d
000003d0: 9d06 9f3d 1b50 68bd 1155 a23c 03d8 4abd
000003e0: 65ba 2bbd 85e8 c9bd 9dca 9a3d e639 c13d
000003f0: 97c9 e8bd 43f6 d2bd cafd 8f3d 8adc a4bc
0.016551996 0.08123126 0.020881921 0.002518222 0.024751421 0.05106931 -0.014239066 -0.17697304
0.0055895117 0.056227632 -0.09726622 -0.10066341 -0.009086788 0.24832253 -0.08592432 -0.03010375
-0.00011967422 0.03486232 0.022952821 0.1099207 0.03194076 -0.0012018664 -0.04323766 -0.13336332
-0.053854443 -0.0287808 0.20116372 -0.064684115 0.03816501 0.06655398 0.18598673 -0.06783108
-0.036226884 0.1031134 -0.0036991774 0.07896143 -0.104573235 -0.038996432 0.0147619145 -0.0055652857
0.003087981 -0.017771045 0.08681453 -0.010852649 -0.07723165 -0.18505388 -0.014291444 -0.05684403
-0.14931343 0.057878427 -0.019620845 0.072083086 0.07054906 0.069980405 -0.11049606 -0.0492413
-0.028065914 -0.010533716 -0.11991633 -0.11373481 -0.06715173 0.16445279 -0.026688218 0.06541591
-0.2011601 0.032635238 0.105904795 0.0361709 0.039687824 -0.06992235 -0.06672648 -0.0889256
0.062370878 -0.06871503 0.075886466 0.03369409 0.084965184 -0.100725375 -0.013082227 0.0591668
-0.06895837 -0.03094424 0.05574189 0.1357532 -0.2641541 0.04910908 0.04167201 0.045074075
-0.03295917 0.008174703 -0.13647164 0.08596415 0.03367688 0.06131458 -0.04507453 0.043982957
0.00060180854 -0.06597934 0.06964943 -0.13656394 -0.08960529 -0.026111344 0.01391037 0.12896457
-0.029074762 -0.01775464 -0.070093356 -0.02503765 -0.17113364 -0.13964792 0.07954488 0.03470882
0.18561645 -0.07213215 -0.008851639 0.033128057 -0.031616665 0.038073123 0.06916276 -0.06570991
0.051322415 -0.001910742 0.018953655 0.19375055 -0.08171365 -0.03412042 0.12873667 -0.027646312
0.03395654 -0.024532858 0.019585945 0.0037189622 0.0059786537 0.022032559 0.034801267 -0.06748553
0.079746895 -0.15917037 0.004940576 0.1550955 0.010210814 0.0008679649 -0.016506113 -0.09199922
-0.050234687 0.07010501 -0.10046965 -0.06734429 -0.029796276 0.14212637 -0.042646136 0.010134822
0.102557726 -0.024979552 -0.12763198 -0.015728889 0.06637193 0.05354508 -0.030778237 -0.102408454
-0.15027359 -0.18867525 -0.036749605 -0.013245275 -0.076819606 0.055001166 0.006043169 0.01267134
0.06525124 -0.036926705 0.13119733 -0.037912466 0.07209178 0.04913492 0.0055531748 -0.08989563
-0.12814379 0.05205972 0.09876033 0.062393613 0.04115444 -0.11624284 -0.08797106 0.17518379
0.11744364 -0.0005759806 -0.124922715 -0.0016309938 0.017726539 -0.019015692 -0.051572755 -0.13283873
-0.038762007 -0.010316591 -0.0314901 -0.04159836 -0.016788479 -0.0147674475 -0.068782724 0.008697654
-0.07332129 0.06021243 0.032668483 0.057014003 0.008757472 -0.05488266 0.00031322998 -0.1335541
-0.037570607 0.1990588 -0.030778363 0.033989694 0.09545894 0.039270326 -0.049453966 0.07048854
-0.0028783595 -0.1006578 0.13991305 0.06018727 -0.030030156 0.05150624 -0.10842803 0.049873494
0.031613324 0.02571001 0.17670602 -0.0425283 0.017617043 0.0044005 -0.00029056333 0.094508976
-0.029698428 0.13049667 -0.03457285 -0.019947594 0.018275509 -0.017184382 -0.051916152 -0.008036424
0.029402567 0.017171677 0.106229074 0.10887563 0.07764933 -0.05671702 0.019815953 -0.04952241
-0.041925807 -0.09858803 0.07558177 0.094348714 -0.11366575 -0.10300877 0.07030828 -0.020124692

network_body.linear_encoder.seq_layers.2.bias f4 [128]
00000000: f92d 103b 74c2 e6bb 6e3b 873c 711d a2bc
00000010: 90ae b73a c764 f13c dac6 eb3c 87d4 813b
00000020: 9939 89bc b4fb 363c 7ec7 003c b445 2ebc
00000030: a78f 293d 844c b5ba 005c 953b 5c2a 1c3b
00000040: cd71 b23a d87d f73a b978 f7ba 0918 3bbc
00000050: c9cb 82bc 0bb9 13bc ef2f f139 7e20 cbbb
00000060: 0f4e 523c 6c4e c4bc 08ea afbb 4c57 acbc
00000070: 67f3 26bc ac5b 04bd 3c3d 123d 35fb 99bc
00000080: ef8b a7bc d8b6 92bc b424 f63c b59e fabb
00000090: e533 afbc c554 a33c 8971 493c b4ec b53b
000000a0: fa70 ba3c 5a8c 39bc b4c6 b93c 5063 fa3b
000000b0: d517 7c3b de71 00bd 0091 14bc 605b 01bc
000000c0: 39d6 af3c f1c7 60bc 0229 8d3c 419b 0b3d
000000d0: 403a b4bb 5961 193b 0687 91bc 3b14 a13c
000000e0: 785b 293d 8d3b 32bc a9cb 813c 0632 963b
000000f0: 5c0b 743c c9da b03b 89c5 dbbb dd17 eb3c
00000100: 86fb 5cbc 5d61 893b 8b34 523c cca3 7c3c
00000110: 4aca 7039 2d7e b5bc fcd2 9e3c 4356 5c3c
00000120: 8afb 2cbc 7190 3ebb 229f d73c 0a73 e3b9
00000130: 25ec a93b 2fce e4bb cb67 e7bb d9e0 13bc
00000140: 2ce2 113c 1848 e43c 990b 323c 658b c23c
00000150: 030e 81bc 7d58 c03c 16de 3b3b b419 323b
00000160: 51be acbc 99e4 d3ba 90ab 23bb 69db a33c
00000170: 3b37 b0bc e354 99bb bc13 443c 11b3 3fb9
00000180: b691 763c 6287 193c 9838 9b3c 10fb 1bbc
00000190: 1629 1bbd e139 56bb 488f 9cbb e985 39bd
000001a0: 0884 5c3b 0747 69bc 5dd0 013c 2659 183d
000001b0: c693 76bc 9440 4a3c 01d2 1c3c a5e7 cebc
000001c0: 8774 0e3d dee6 2fbc 3d01 12bc bb98 acbc
000001d0: 8e44 a63c f79d f03c cbb2 a6bb c53e cabc
000001e0: fa9a 8cbc 3198 d53b f506 c3bb aff7 9ebc
000001f0: 2d28 ba3b c9bc ccbb b636 ebbc 46e8 be3c
0.0022000058 -0.0070422236 0.01650783 -0.01978943 0.0014013816 0.029467 0.028781343 0.003962103
-0.016751098 0.011168409 0.007860063 -0.010636736 0.041396763 -0.0013832008 0.0045580864 0.002382896
0.0013614238 0.0018882109 -0.0018880583 -0.011419305 -0.015966313 -0.009016286 0.00046002815 -0.0061989417
0.012835993 -0.023963176 -0.005368475 -0.02103772 -0.010189868 -0.032313988 0.03570293 -0.018796543
-0.020452468 -0.017909452 0.030046798 -0.007648314 -0.02138705 0.019937882 0.012295135 0.005551899
0.02275895 -0.011324966 0.022677757 0.0076412335 0.0038466353 -0.031358592 -0.009067774 -0.007895321
0.021464454 -0.013719545 0.017231468 0.03408361 -0.005500108 0.002340397 -0.01776458 0.019662967
0.041346997 -0.010878456 0.015844183 0.0045836 0.014895286 0.005397175 -0.0067068976 0.028697902
-0.013487702 0.004192515 0.01282991 0.015419912 0.00022963542 -0.022154892 0.019387715 0.013448301
-0.010558018 -0.0029077793 0.026320998 -0.00043382525 0.0051856213 -0.006982587 -0.0070619336 -0.009025776
0.008904021 0.027866408 0.010867023 0.02374811 -0.015753752 0.023479695 0.002866631 0.0027175965
-0.021086844 -0.001616615 -0.0024974085 0.020002084 -0.021510711 -0.0046793087 0.011967596 -0.00018281887
0.015049389 0.009370657 0.018947884 -0.009520307 -0.03788098 -0.0032688307 -0.0047778226 -0.045293722
0.0033648033 -0.014238126 0.007923213 0.037194394 -0.01504988 0.012344498 0.009571553 -0.025256941
0.034779098 -0.010736195 -0.008911428 -0.021068921 0.020296361 0.029372199 -0.0050872318 -0.024688134
-0.017163742 0.006518387 -0.005951757 -0.019405214 0.005681059 -0.006248091 -0.028712612 0.023304116

action_model._continuous_distribution.log_sigma f4 [1, 3]
00000000: 299d ef3c aec6 5ebd 27e4 cabc
0.029249744 -0.054388694 -0.024766995

action_model._continuous_distribution.mu.weight f4 [3, 128]
00000000: 3632 c83a e301 43ba d887 943c d4f5 b9bc
00000010: a5d1 633c f4fc c5bc b237 393c aacc 5b3b
00000020: fb7d 17bd a101 133d 6560 0c3c a9c1 d43b
00000030: 728f abb8 1baa 423d 5c26 69bc 03e7 803c
00000040: 590d d0bc a730 0e3d 8adc 693a fa5c 103c
00000050: d0ff d4bc 8b7d 36b8 8273 533c 7958 42bc
00000060: bdf5 99bc 85ae 20bc b512 483c 8c71 97bc
00000070: 9910 9fbc 887c fcbb cce0 89bc 8e31 0f3a
00000080: c7b5 c239 7a15 a43c e7c7 803b 129d 7fbc
00000090: 05db fb3a 22d0 30bc 7a2c 02bd db25 5a3c
000000a0: 82d9 463c 5563 aa3c f9a7 20bc c872 d03c
000000b0: b632 473c 118b 43bb 9edb 113b 6924 473c
000000c0: f99d b2bc 81d5 963c 947f 79bc c5fc 32bd
000000d0: f3e5 5dbc 63bf 033b 8199 373c 7c6f efbb
000000e0: fec9 ee3b f3ed c83c 3485 1bbc e9a0 0a3b
000000f0: 1de5 09bd 784e b23c cdec 02bd 5eb2 123c
00000100: 19f5 443c b306 f4bb b9a5 0f3c 69b4 96bc
00000110: f224 61bc d50c 45bc c93d 893c 7591 aabc
00000120: 4a42 253b 48a1 553b 5cdf 1ebd 3505 11bd
00000130: 196d 86bc eb6e 943c 5cc3 bdbb 1cab c239
00000140: 4931 b5bc 037b 4abd 39f9 fd3b d313 c5bc
00000150: 6a7b b3bc 446d 8f3a 7bb2 5739 b9ba d1bb
00000160: a202 49bc 9956 c03b 09ec 13bc ef07 09bd
00000170: 97e1 1fbc c2ae a63c 8d27 a73b c652 7bbc
00000180: ce84 85bc 29e4 8fbc 1222 5cbc 58d1 e33b
00000190: 80a2 84bc 6df5 c539 0dba 82bb 6bbc d83b
000001a0: a9f1 e9bc 317e 463b 65c1 db3c ee5b 53bd
000001b0: 954b ee3b b4d0 d53a 9192 11bc c124 1a3b
000001c0: bda2 29bd 4f3d 423c 1009 f7bc 5661 cbbb
000001d0: 0e3c c7bc 9fa8 983c 25f0 59bb 6dcf 0e3b
000001e0: a21f f3bb e136 353c deea 773c e798 6b3b
000001f0: 2f61 2a3d 3d67 ce3c f837 9bbb 7499 ccbc
00000200: a6f1 a9bc ba67 663b bded 173b 20d5 56bb
00000210: ed0f ed3c 38d6 653d c600 0c3d 7a59 9fbc
00000220: 7410 3bbd b521 c6bc 6b75 cf3c d394 f5ba
00000230: fdfe a63c 54b8 a03c 85a7 7c3b 320c 19bd
00000240: da2c 87bc 172c bcbb 3fa6 34bd f10d 4b3a
00000250: 8986 9ebc a284 dabc d3e6 0fbc ad60 ce3b
00000260: eeca 833c e829 1fbc 8337 adbb 8d7e a6bb
00000270: e04c 9639 f60c ffbb ff1a 1f3c 42d0 70bc
00000280: f262 cabc 9d5a 8ebc 7032 6f3c da1e 4b3c
00000290: 4111 95bc defc bc3a 8a01 a73c a0a4 12bd
000002a0: 82b6 0ebb 0530 a1ba 53f3 b13c d470 bbbc
000002b0: 8df1 be3b 6a4a e73a 5bbf 48bc 1588 16b8
000002c0: 6d4e 8a3c f285 393b 3fe1 26bd 5a9c 123d
000002d0: 9747 bcbc 1b3c dabc 31e7 0839 a28f 713c
000002e0: a5f1 e23c d574 f13b 35e9 853c 1f78 023c
000002f0: 5357 d13a b091 d2bb 12ca cf3c 44a9 bf3c
00000300: 0e54 17bd d153 813b 7739 bc3c f45e d43c
00000310: 604a f13b 911f e2bc d9c9 243b 7c93 af3b
00000320: 6315 76bc 5045 da3b cae9 743d 39ba 4f3b
00000330: 8aa9 2d3b 59b2 9bbc b586 dabb 2646 b9bc
00000340: e295 24bd 082d 183d 8bc0 713b 9277 9d3c
00000350: 5fdc 88bc 8649 633c 5770 3e3c 51b1 c53c
00000360: 58d5 cabb da16 00bd 41a0 0e3c b6fe a13b
00000370: 0e95 ea3b a6a9 b1bc c4ae 173d 54be e33b
00000380: 0a82 8c3c cba9 e13c dc03 593c 9dd2 703b
00000390: 9d98 0c3c c4c9 743a 159d 2b3c d553 dabb
000003a0: 87fe 903c 3838 8abc 0f45 18bc e4c0 7c3d
000003b0: 3826 cdbc edd4 953b 971b fb3c dafc 9cba
000003c0: f5ff 2a3d af96 04bb c40b 3abc 08a0 e0bb
000003d0: bfff 1a3d 51fe 723b 51c1 67bc 2d15 fc3a
000003e0: 52ac 0cbc 99c4 83bc bc69 5fbc a41a 84bc
000003f0: 20a8 e33c b2f2 f13b 5c4a 87bb ba10 2b3d
0.0015273753 -0.0007438941 0.018131182 -0.022700228 0.013904964 -0.024168469 0.011304783 0.0033538737
-0.03698538 0.035890225 0.008567904 0.0064928127 -8.180634e-05 0.047525506 -0.014230337 0.015735155
-0.02539699 0.034714367 0.00089211075 0.00881123 -0.026000887 -4.3509102e-05 0.012905957 -0.011861914
-0.018793935 -0.009807234 0.012211491 -0.01848676 -0.019417094 -0.007705275 -0.016830824 0.00054624013
0.00037137998 0.020029772 0.00393008 -0.015601413 0.0019215053 -0.01079181 -0.031780697 0.0133146895
0.012136819 0.020799318 -0.009805673 0.025445357 0.0121580865 -0.0029837529 0.0022256146 0.012154677
-0.021803843 0.018412353 -0.015228171 -0.04369809 -0.013543594 0.002010309 0.011206032 -0.007306991
0.007287263 0.024527526 -0.009492207 0.0021153039 -0.033665765 0.021765932 -0.031964112 0.008953659
0.012021326 -0.0074470877 0.008767539 -0.018396573 -0.013741719 -0.012026985 0.016753094 -0.020821312
0.0025216513 0.0032597352 -0.03878723 -0.035405356 -0.016409444 0.018119296 -0.005791111 0.0003713005
-0.022118228 -0.04943372 0.007750657 -0.024057304 -0.021909434 0.0010942598 0.00020570487 -0.006400433
-0.012268694 0.0058696982 -0.009028443 -0.03345483 -0.009758375 0.020347003 0.0051011504 -0.015339559
-0.016298678 -0.01756485 -0.013435857 0.006952446 -0.016190767 0.00037757625 -0.003989464 0.006614258
-0.028557615 0.0030287618 0.026825616 -0.051601343 0.0072721937 0.0016312809 -0.008885042 0.0023520442
-0.041414965 0.011855437 -0.030155689 -0.0062066717 -0.024320628 0.018635092 -0.003325471 0.0021791116
-0.0074195424 0.011060447 0.01513168 0.0035949291 0.041596588 0.025195712 -0.0047368966 -0.024975516
-0.02074511 0.003515704 0.0023182475 -0.003278084 0.028938258 0.056112498 0.034180425 -0.019451845
-0.045669988 -0.024185995 0.025324544 -0.001873637 0.02038526 0.019619144 0.0038551998 -0.037365146
-0.01650088 -0.0057425606 -0.044103857 0.0007745913 -0.01935126 -0.026674572 -0.00878306 0.0062981457
0.016087975 -0.009714581 -0.0052861585 -0.005081004 0.00028667506 -0.0077835275 0.009711026 -0.01469809
-0.024705384 -0.017377192 0.014599428 0.012397492 -0.018196704 0.0014418622 0.020386476 -0.03580153
-0.0021776264 -0.0012297636 0.021722471 -0.02288095 0.005827135 0.0017646078 -0.012252654 -3.5889523e-05
0.0168831 0.0028308597 -0.040742155 0.03579364 -0.022983355 -0.026639989 0.00013056096 0.014743717
0.027703116 0.007368664 0.016346553 0.007963209 0.0015971459 -0.0064260587 0.02536491 0.023396142
-0.036945395 0.0039467593 0.02297662 0.025924183 0.0073636025 -0.027602943 0.0025144725 0.0053581577
-0.015019747 0.0066610947 0.05979327 0.003169669 0.0026498758 -0.019005941 -0.0066688904 -0.022616457
-0.040182002 0.03715232 0.0036888446 0.019222055 -0.016706644 0.01387251 0.011623464 0.024132403
-0.0061899833 -0.031271793 0.0087052 0.004943694 0.007158882 -0.02168734 0.037031904 0.006950179
0.017151851 0.027546784 0.013245549 0.003674663 0.008581308 0.0009337927 0.010474463 -0.0066628256
0.017699493 -0.01687251 -0.009293809 0.061707392 -0.025042638 0.004572502 0.030652804 -0.0011977211
0.041748006 -0.0020231416 -0.011355344 -0.0068550147 0.037841555 0.0037077854 -0.014145211 0.0019232385
-0.008586006 -0.016084956 -0.013636049 -0.016125984 0.02779013 0.007383668 -0.0041287374 0.041764

action_model._continuous_distribution.mu.bias f4 [3]
00000000: e364 b23b a7b3 513c adfe 9bbc
0.0054441555 0.01279918 -0.019042337

exp_avg f4 [128, 9]
00000000: 1744 0d38 ea8a 3db8 7f7a a538 cdcd c13a
00000010: 94d9 393b da5b 213a d98a d5b8 e231 4539
00000020: 9cc2 5a3a f7e0 4737 c217 86b7 2123 ea37
00000030: 2608 e23a 2dd5 4bbb a8e4 8aba ede7 d338
00000040: 5690 fdb9 a331 44b9 8fc1 cfb7 a560 0b38
00000050: 6a5d 73b8 58f0 4d39 d29d e9ba af7c b43a
00000060: 9e0a 603a ed95 4cba e060 b9ba 550c 5039
00000070: d592 8bb9 f4b4 f339 e963 92b8 e7af f5b9
00000080: d382 973b 5ddc a53b 7584 703b 7b94 06ba
00000090: 2f9f cfb7 9949 0b38 2435 73b8 b5c7 c038
000000a0: 5a28 bab9 f046 18b9 95e8 97b8 1ece e6b8
000000b0: 4728 23b9 cf58 06b9 5142 3439 a65f 9db9
000000c0: ebf8 b23a 1cd7 e1b9 4a70 2f3a cbe1 bf3a
000000d0: f031 303a a08d 3c3a 46e0 4a38 8f1a 88b8
000000e0: ffa5 ed38 4176 90b9 5ca0 a8b9 2c98 82b8
000000f0: 725b 5d38 c1c4 acb5 7dcb 88b9 732c b3b8
00000100: a567 f038 27e2 51b9 f104 b3ba d3a9 063b
00000110: b1af 0439 2f0f 80ba 7428 d3b9 a6a3 8e3a
00000120: 3342 22b9 94b5 5939 b911 beb9 0564 40bb
00000130: 16c7 993b cf1e 803a 13cf aaba 9182 94ba
00000140: f5bc 88b9 f1aa 87b8 fc07 b638 b7eb 1eb9
00000150: 81d0 91b8 f619 09bb 43b3 89b9 9459 72b9
00000160: 0eb0 1db9 8ef0 d3b9 88de b2b9 1bff ef39
00000170: e386 51ba 55e1 0dbc 54e6 883c ff4c 103b
00000180: 3966 a6bb 3d65 25ba aea2 ac3b c2de 3339
00000190: e256 71b9 0db3 d239 3502 e83b 57e9 30bc
000001a0: 36bf 153a 0cc8 b83b 5eb6 173b 22bb 1cbb
000001b0: 4308 dcb9 039d 133a 5edf 80ba 47da 63bb
000001c0: 796a ed3b 2f63 33ba 2f8d 67bb 5859 04bb
000001d0: 9f66 b53a b763 d0b7 75cd 0b38 5a1b 74b8
000001e0: ec64 3339 fc07 c2b8 a48c b538 e139 8fb8
000001f0: 0661 b7b6 f802 a039 1b33 48b9 de4e 8639
00000200: 5983 eab9 eca7 763a 76fb 393b 5e4c 4a3b
00000210: d173 8b3b 0bac 953b ce51 033b 637b b538
00000220: 8280 f3b8 5e96 5439 abbc 783a a56f 603b
00000230: 950b 17ba d189 7eba 5f82 7239 0059 243b
00000240: 7d2d 8337 6f01 b0b7 19a9 1938 8dc8 553b
00000250: 427d 89bb 0659 4c39 e1f0 163b 0c11 ef39
00000260: 7b3f 9aba 15be d7b8 47bc 1039 59b8 7cb9
00000270: e8f3 9136 a43b 4cba 9441 1138 3417 96b9
00000280: e4a5 06b9 ca5d dbb8 f33e d139 8b60 0cba
00000290: 381c 753a 7574 ceba f201 8eba 8a87 953b
000002a0: f911 a63b a5d5 633b 979d a1ba e62e 0239
000002b0: 22ac 2eb9 067f 9839 3191 97ba 89d7 ecba
000002c0: 74ab c9b8 bc07 c939 310c 3639 bcc9 92ba
000002d0: 10cc 4d36 e60f 8ab6 ce11 f136 4e1c 1e36
000002e0: 9340 a9ba 2df4 abb8 680c 863a 81bf d939
000002f0: cbea abba 8849 78b9 9b91 a639 e46b 11ba
00000300: 3712 6f3a 970a b73a 9b26 1639 6ebb 89b9
00000310: 34a4 c8b9 7cf5 073a 211c d938 1da7 11b9
00000320: 6152 7e39 9866 95b9 ed95 8cb9 77cc 64b9
00000330: 89a5 a1b9 b773 0cba 4c55 69b9 e509 70b9
00000340: f908 a139 1a97 0cba 01bf cb3a ae29 12b9
00000350: 4e75 d8ba df58 89ba 210a 2aba d894 c739
00000360: 3004 7938 da0e a7b8 33d9 1139 3acd 463b
00000370: 68f9 82bb 6769 cdba 4bcf c73a 5c15 b139
00000380: 6afd 2aba 676d 2a39 6dab 64b9 55a3 c739
00000390: ef83 373b 6084 8cbb 7850 093b ddd9 4d3b
000003a0: 14ca 433a f910 00bb 1c38 13b9 bc87 4539
000003b0: bb73 acb9 fcf1 1e3b 7fff a5bb c847 01bb
000003c0: fd8b 583a 4e99 17b8 37a0 b3ba e597 9538
000003d0: 3ab7 c8b8 b33b 2f39 2d37 003c 97d4 54bc
000003e0: 9cc5 41bb 81de a23a 19ab e8ba 23c3 11bb
000003f0: da83 c1b7 ddd2 0138 d5ae 62b8 63a6 19bb
3.3680433e-05 -4.5190485e-05 7.89063e-05 0.0014786065 0.0028358446 0.00061553495 -0.00010182494 0.00018805967
0.0008345039 1.1913703e-05 -1.5985108e-05 2.7911332e-05 0.001724486 -0.0031102404 -0.0010596709 0.000101044636
-0.0004836346 -0.00018710508 -2.4766456e-05 3.323019e-05 -5.8022713e-05 0.00019639859 -0.0017823523 0.0013770069
0.0008546504 -0.0007804323 -0.0014143251 0.0001984102 -0.00026621544 0.00046483392 -6.980432e-05 -0.000468611
0.0046237498 0.0050616697 0.0036700044 -0.00051338196 -2.4750449e-05 3.3208726e-05 -5.7985206e-05 9.192472e-05
-0.0003550675 -0.00014522276 -7.243563e-05 -0.00011005647 -0.00015559896 -0.0001281232 0.00017190842 -0.00030016637
0.0013654506 -0.00043075613 0.00066924526 0.0014639435 0.00067213085 0.00071927346 4.8369424e-05 -6.489932e-05
0.0001133196 -0.00027553926 -0.00032162934 -6.227227e-05 5.277567e-05 -1.2872262e-06 -0.00026091552 -8.5436644e-05
0.00011463397 -0.00020016042 -0.0013658089 0.0020548 0.00012653951 -0.000977015 -0.00040275196 0.0010882511
-0.00015474185 0.00020762376 -0.00036252828 -0.0029356491 0.0046929223 0.0009774807 -0.0013031684 -0.0011330416
-0.00026080725 -6.469142e-05 8.6799235e-05 -0.00015155865 -6.952976e-05 -0.0020920015 -0.00026264237 -0.00023112289
-0.00015038272 -0.00040424283 -0.00034116604 0.000457757 -0.0007992817 -0.00865968 0.016711392 0.002201855
-0.005078104 -0.0006309336 0.0052684164 0.00017153754 -0.00023015917 0.00040187725 0.007080341 -0.01079782
0.00057123916 0.005639082 0.002314947 -0.002391525 -0.00041967825 0.00056310015 -0.0009832194 -0.0034767555
0.0072453585 -0.00068430876 -0.0035331955 -0.0020194855 0.0013839788 -2.4841966e-05 3.333153e-05 -5.8199606e-05
0.00017108367 -9.252128e-05 8.656949e-05 -6.829552e-05 -5.46512e-06 0.0003051979 -0.00019092525 0.00025617232
-0.0004472982 0.00094091776 0.0028378642 0.0030868272 0.0042557498 0.0045676283 0.0020037773 8.653735e-05
-0.000116110794 0.00020273912 0.0009488563 0.0034246233 -0.0005761919 -0.00097098673 0.00023127485 0.0025077462
1.5637599e-05 -2.0981503e-05 3.6635527e-05 0.0032620758 -0.00419584 0.0001948812 0.0023031759 0.00045598333
-0.0011768186 -0.000102874044 0.00013803049 -0.00024101268 4.349731e-06 -0.00077908696 3.463177e-05 -0.00028627517
-0.00012841035 -0.00010460203 0.00039910487 -0.0005354962 0.0009350213 -0.001575126 -0.001083432 0.0045632767
0.0050680605 0.0034764793 -0.0012330291 0.00012415237 -0.00016658058 0.0002908634 -0.0011563656 -0.0018069606
-9.6163625e-05 0.0003834347 0.00017361414 -0.0011199038 3.066616e-06 -4.1145713e-06 7.1844324e-06 2.356031e-06
-0.0012912921 -8.199397e-05 0.0010227086 0.00041532147 -0.0013116238 -0.00023678516 0.00031770472 -0.0005547388
0.00091198407 0.0013964948 0.00014319496 -0.00026270322 -0.00038269314 0.00051864213 0.00010352606 -0.00013890532
0.00024254016 -0.00028495933 -0.00026814584 -0.00021819944 -0.00030831646 -0.0005357819 -0.00022252387 -0.0002289187
0.00030714998 -0.0005363092 0.0015544594 -0.00013939172 -0.0016514452 -0.0010478756 -0.00064864947 0.00038067135
5.9370126e-05 -7.965947e-05 0.0001390919 0.0030334727 -0.0039970167 -0.0015671671 0.0015244273 0.00033775985
-0.0006522747 0.00016253219 -0.00021807635 0.0003807793 0.0028002223 -0.0042882413 0.0020952504 0.0031410374
0.00074687717 -0.0019541366 -0.00014039915 0.00018837949 -0.00032892622 0.002425312 -0.005065858 -0.0019726623
0.0008260606 -3.614398e-05 -0.0013704364 7.133166e-05 -9.570872e-05 0.0001671154 0.007825655 -0.0129901385
-0.0029567247 0.001242593 -0.0017751186 -0.0022241555 -2.3068791e-05 3.095238e-05 -5.4045424e-05 -0.0023445121

exp_avg_sq f4 [128, 9]
00000000: f722 8a35 4dea e735 ebff ae36 3188 853a
00000010: defa d539 7c68 0d39 9dd8 ab37 21c9 0c37
00000020: 06b2 7c38 1b29 5935 6ac8 1a35 3132 ba35
00000030: 111f 133a 0928 5d39 3571 6738 520a 1037
00000040: 23a7 3436 ddf3 9f37 6ce3 a035 51a5 2b35
00000050: 77c6 af35 dd1d ed3a cdfe 563b acbe 5339
00000060: a71d 2838 5670 4137 7645 c438 0e36 c235
00000070: 5c77 2536 6244 fa36 5c1d 353b 06a7 ac3b
00000080: e6de 9939 9d0d b138 7ed0 c437 d678 2f39
00000090: 4efe 2236 0d0d 6835 6358 9b35 de5f 6839
000000a0: 9dba bc38 63d9 3438 d6c7 8936 5c8b 3e36
000000b0: 7bd3 9337 d02d 0e35 c2ae 3d35 3598 0936
000000c0: 3619 5038 04d5 ad38 4725 5937 e4eb 8237
000000d0: 4222 c235 c933 e137 10ec 8c34 a5be 1634
000000e0: d9a7 9a34 c8c3 2538 69a9 8737 a512 8137
000000f0: 4173 8e35 0c04 1735 19f1 5136 4df6 8835
00000100: f36a 7f35 64a3 2936 8367 3c3a a77a 1d3a
00000110: 465d ff38 f9c1 b737 d8c9 e836 5728 3938
00000120: d7ff 6135 a355 4a35 b9ac 0436 1f70 8e3a
00000130: 424d 1b3b c84e 2439 de2b 0e38 67da 5c37
00000140: c541 9b38 447b 1f36 11a8 a735 c4eb 2936
00000150: 298d f539 e85f b039 0abd 0e39 78f7 3c37
00000160: 1891 0f37 cce5 f937 4659 8235 4cd6 cf35
00000170: 8496 9b36 2d6b ba3a d4d7 323b e4e2 8639
00000180: 459e 6538 470a b437 1a9f e638 63e0 f735
00000190: 3d83 5b36 b6ee 2637 0037 223b b5e4 903b
000001a0: bb79 7f39 00e4 b338 42ef b337 a249 3839
000001b0: 489f b135 8a1f be35 5d41 8336 4f98 133b
000001c0: 607c 253b 5843 1f39 ac26 5938 c2e1 4337
000001d0: 22e2 d938 9815 a835 1273 1235 6832 7d35
000001e0: 6ff9 aa39 78a2 0a39 444b 5238 ed32 e736
000001f0: 0b76 4136 b050 8137 e043 f836 1ad3 5537
00000200: 0df6 2138 9d34 3a3c 501f a93c 1e41 ad3a
00000210: c973 aa39 e5eb bf38 52df 2b3a 8d1d d435
00000220: adb4 3836 8e20 0c37 f990 8e3b 96d1 a13b
00000230: 266b ef39 1787 bc38 abcc e937 14cf 5639
00000240: 967c 2035 5402 3b35 a0cd 0336 8c71 3638
00000250: 91d9 c638 6a7b 3437 5dac f036 aee1 d535
00000260: 8fa5 5937 6c77 1135 933f 2535 fa8b e735
00000270: a608 8a38 25ac fb38 54ec 1838 d161 9036
00000280: a9ce 8a36 5866 3737 fb71 bf35 08ce 1436
00000290: 01e2 dd36 4c5b 603b 8d6b b73b 29b7 8939
000002a0: 6a07 8c38 53c8 a237 f2c4 0939 649e a634
000002b0: 48fa a534 09ca 6035 ca5d 0738 6bd7 8138
000002c0: c289 2c37 d469 f935 ca49 3f35 9418 9f36
000002d0: 9ceb 2e35 d344 6f35 4c67 2e36 76d4 c63a
000002e0: 6840 b43a c9de e838 51da c137 f214 f736
000002f0: 8b61 5e38 bf80 d934 d9b4 1435 51c5 d835
00000300: 2af3 8338 1438 4b38 e340 7e37 c5f5 8b36
00000310: 6673 6f35 03e9 9536 c841 fb35 8df3 6a35
00000320: a110 d935 f609 a039 8b94 4e39 490d d338
00000330: f8b1 4237 5f11 9a36 fcf0 7937 caeb d334
00000340: d5e5 3c35 3ec8 0f36 ab57 e139 9d0d 613a
00000350: 07af 6a38 dc77 7937 e038 9436 9b74 0238
00000360: 1198 1635 b1a3 6c35 4fbc 3036 70c1 df3a
00000370: 9ddc 2d3a 3b75 e638 6375 0138 7ae3 b136
00000380: a139 9538 582d b135 5e3d 9735 8f36 4336
00000390: 6f1e ab3a 337b 123b b2d8 5839 f318 2e38
000003a0: 9dbe 7337 2553 c538 f534 d535 ed8b 3e36
000003b0: 4217 1137 1306 a03b c69e d13b 08a8 ca39
000003c0: ded9 bb38 7ace aa37 8e29 5b39 cff4 f734
000003d0: 2893 2c35 bd68 fc35 cc0f 033b 759d 593b
000003e0: 3d2d 5a39 25a9 3438 dabf 7a37 e671 db38
000003f0: 25a3 9a35 e163 1a35 b093 9635 70de 9c3a
1.0291977e-06 1.7279032e-06 5.215397e-06 0.0010187683 0.00040813436 0.00013485731 2.0485657e-05 8.391479e-06
6.024728e-05 8.0898616e-07 5.766111e-07 1.3872688e-06 0.0005612234 0.00021091117 5.5180124e-05 8.585472e-06
2.6919377e-06 1.9067835e-05 1.1987117e-06 6.394303e-07 1.3096277e-06 0.0018090565 0.0032805682 0.00020193559
4.0081937e-05 1.1529852e-05 9.3589464e-05 1.4469858e-06 2.4656392e-06 7.4585414e-06 0.0027635908 0.005268934
0.00029348506 8.4425534e-05 2.3462107e-05 0.00016734315 2.4287906e-06 8.6445726e-07 1.1574124e-06 0.00022160957
8.999298e-05 4.31178e-05 4.106182e-06 2.8393324e-06 1.7622244e-05 5.296579e-07 7.066229e-07 2.0503187e-06
4.9614544e-05 8.28896e-05 1.2942887e-05 1.5607053e-05 1.4464097e-06 2.6846204e-05 2.624879e-07 1.4039195e-07
2.880686e-07 3.95214e-05 1.6172142e-05 1.538668e-05 1.0613368e-06 5.625777e-07 3.1283764e-06 1.0204473e-06
9.5150534e-07 2.5278068e-06 0.00071870553 0.00060073513 0.00012176721 2.1905626e-05 6.9376365e-06 4.4145007e-05
8.419133e-07 7.537548e-07 1.977007e-06 0.0010867155 0.0023697172 0.00015669607 3.3896293e-05 1.3163873e-05
7.4032265e-05 2.3764596e-06 1.2491383e-06 2.5320196e-06 0.00046835214 0.00033640792 0.00013612598 1.12632915e-05
8.5572465e-06 2.979012e-05 9.711737e-07 1.548507e-06 4.6368823e-06 0.0014222615 0.0027289288 0.00025727518
5.4745255e-05 2.1462458e-05 0.000109968896 1.8468239e-06 3.2709934e-06 9.94995e-06 0.002475202 0.0044217953
0.00024364043 8.5778534e-05 2.1449876e-05 0.00017575038 1.3233885e-06 1.4165282e-06 3.9117135e-06 0.0022521203
0.0025251135 0.00015188509 5.1772848e-05 1.1675469e-05 0.00010389487 1.252326e-06 5.455669e-07 9.4323195e-07
0.0003261077 0.0001322123 5.0138e-05 6.890265e-06 2.8827951e-06 1.5415571e-05 7.3988776e-06 1.274494e-05
3.8614544e-05 0.011365083 0.020644814 0.0013218259 0.00032511193 9.1515285e-05 0.00065564096 1.5803831e-06
2.7523304e-06 8.35223e-06 0.004350778 0.0049383147 0.00045665464 8.989701e-05 2.787107e-05 0.00020485773
5.978594e-07 6.9666316e-07 1.964021e-06 4.349793e-05 9.4819006e-05 1.0757571e-05 7.172623e-06 1.5935418e-06
1.2972755e-05 5.419049e-07 6.15598e-07 1.725158e-06 6.581964e-05 0.00012000677 3.645972e-05 4.3029218e-06
4.136779e-06 1.0931479e-05 1.4263782e-06 2.2173645e-06 6.6126236e-06 0.0034234105 0.005597538 0.0002626714
6.677101e-05 1.9405188e-05 0.00013138706 3.1035154e-07 3.0915749e-07 8.37405e-07 3.2273856e-05 6.191324e-05
1.0284073e-05 1.8582746e-06 7.126042e-07 4.7414305e-06 6.516291e-07 8.913459e-07 2.5988147e-06 0.001516952
0.0013752105 0.00011104119 2.3109054e-05 7.363612e-06 5.301977e-05 4.0513075e-07 5.5397464e-07 1.6150681e-06
6.2918596e-05 4.84512e-05 1.5154687e-05 4.171134e-06 8.9202365e-07 4.467672e-06 1.8720102e-06 8.7526206e-07
1.61726e-06 0.00030525 0.00019701027 0.000100637386 1.1604738e-05 4.59158e-06 1.4897665e-05 3.9473372e-07
7.036991e-07 2.1425217e-06 0.00042980662 0.00085850974 5.5952954e-05 1.48694635e-05 4.417365e-06 3.1103013e-05
5.610064e-07 8.8155053e-07 2.6335654e-06 0.0017071199 0.00066323 0.000109890905 3.086532e-05 5.301493e-06
7.115608e-05 1.3200724e-06 1.1268237e-06 2.9089022e-06 0.0013055335 0.0022351264 0.0002068009 4.150807e-05
1.4528309e-05 9.409179e-05 1.5885149e-06 2.8393654e-06 8.648089e-06 0.0048835366 0.006397101 0.00038653635
8.957436e-05 2.0361727e-05 0.00020900948 4.6185457e-07 6.4289134e-07 1.8805946e-06 0.001999843 0.0033205424
0.00020806953 4.3072872e-05 1.494583e-05 0.00010463949 1.1521375e-06 5.7514814e-07 1.1218854e-06 0.0011968147

exp_avg f4 [128]
00000000: 4829 87b8 ba3d bfb7 2ac7 4638 b20e c7b9
00000010: 4ba6 4638 918a 8039 e41b c2b8 466e 2b39
00000020: 283f 9b39 13ce 0139 bd23 2b3a e618 acb9
00000030: 1286 523a 5662 4738 478c bf39 ada3 2db9
00000040: 5a04 fbb7 5c6b 4e39 2334 48ba 691d 79b9
00000050: f7e6 c4b6 c38e ed39 47ba 4fb9 62aa e539
00000060: 5d41 eeb8 fb0f a3b9 73db 8c39 f920 0fb9
00000070: 0427 3938 b946 9f37 f5ac 2239 9a00 75b8
00000080: 5083 6eb9 06e0 c839 7c1b 2d39 0334 13b9
00000090: 4e39 2eb9 a8a9 34b9 9fd6 3bb9 1eac 25b9
000000a0: dae8 27b9 014b c3b9 3d42 bc38 2110 c0b8
000000b0: dc3c 30b8 b9bd 6cb9 5539 afb9 afcc 1639
000000c0: 4bd3 1db8 7af9 9a39 1796 7a37 ca60 d038
000000d0: 6c0c a339 35dc 4239 9561 af39 1899 d839
000000e0: ff7b f939 5a64 ec38 0e59 92b8 954a f138
000000f0: bb64 6c39 8b7e 1339 c923 d138 c9fd 89b8
00000100: ef65 c939 8d81 0b39 14b1 bcb8 9c94 5439
00000110: ec3b 1cb9 8ff3 e1b7 fa2e 2739 fec9 0f39
00000120: e679 d9b9 bf7d 8138 2df3 8139 aa8b 2239
00000130: b1b2 54b8 65bd 9d37 64df f538 c60c 0739
00000140: a34a 0db9 c2e5 f0b8 0154 9139 c657 e738
00000150: 7e1e 8e37 b87b 8538 3e91 ef39 ee77 6539
00000160: c389 68b9 be6b 8cb9 2a94 8239 3910 aeb9
00000170: 246c 3bb9 23cc 4539 940c d6b8 aa44 ceb7
00000180: 930a 4039 2e66 1eb9 7204 a8b9 14fc ecb8
00000190: 7065 4537 da57 5839 c1cd f938 9aab 3ab8
000001a0: 59ca 4d39 10de 95b9 9ec6 5a3a 6294 1f3a
000001b0: b11f aab8 c8a4 87b9 d66c 1439 06ea 07ba
000001c0: 8949 393a 88ac 7239 bcfd f539 2828 8b39
000001d0: 79ed 3fb9 afeb 8a39 a378 33b8 fc5c 2d39
000001e0: 2e5c 79b9 9fdf b4b9 7cea 7bb9 8b07 0b39
000001f0: fe0f d5b8 d605 c8b9 8031 9fb8 115e d538
-6.444991e-05 -2.2797718e-05 4.7392365e-05 -0.00037967187 4.736175e-05 0.00024517303 -9.255836e-05 0.00016348911
0.0002961096 0.00012379167 0.0006528458 -0.00032824947 0.00080308423 4.753688e-05 0.00036534874 -0.0001655954
-2.9923558e-05 0.00019685685 -0.00076371635 -0.00023757447 -5.868143e-06 0.00045310528 -0.00019810452 0.0004380523
-0.00011360899 -0.0003110169 0.00026866383 -0.00013649826 4.4143773e-05 1.898721e-05 0.00015513955 -5.8413112e-05
-0.00022746366 0.00038313883 0.00016508804 -0.00014038388 -0.00016615281 -0.0001722934 -0.00017913662 -0.00015799745
-0.00016013105 -0.0003724918 8.9768764e-05 -9.158278e-05 -4.201835e-05 -0.00022577391 -0.00033421317 0.00014381365
-3.76285e-05 0.00029559043 1.4936107e-05 9.936241e-05 0.00031099038 0.00018583315 0.00033451305 0.00041312794
0.00047585365 0.00011272049 -6.97841e-05 0.000115056675 0.00022544239 0.00014066153 9.972562e-05 -6.57994e-05
0.00038413654 0.00013304334 -8.997522e-05 0.00020273257 -0.00014899642 -2.6935506e-05 0.00015943861 0.0001371279
-0.00041480287 6.1746214e-05 0.00024785977 0.00015501553 -5.0711158e-05 1.8804052e-05 0.0001172412 0.00012879362
-0.00013474612 -0.000114868875 0.00027719143 0.000110312874 1.6941918e-05 6.3649786e-05 0.00045693846 0.00021883819
-0.00022176564 -0.00026783155 0.00024905923 -0.00033199953 -0.00017873995 0.00018863431 -0.00010206658 -2.4589088e-05
0.00018314486 -0.00015106119 -0.0003204677 -0.0001130031 1.1765733e-05 0.00020632092 0.0001191157 -4.4505672e-05
0.00019625704 -0.00028584944 0.00083456363 0.00060874794 -8.112135e-05 -0.00025871978 0.00014154924 -0.00051847135
0.00070681475 0.00023143191 0.00046919088 0.00026542065 -0.00018303645 0.0002649701 -4.2789277e-05 0.00016533205
-0.0002378083 -0.00034498886 -0.00024024578 0.00013258883 -0.0001015961 -0.0003815132 -7.590931e-05 0.00010174153

exp_avg_sq f4 [128]
00000000: 95db 6b36 066a 9d35 4690 ae35 7147 a836
00000010: fcfe eb35 48e8 c035 a34e 9934 44e1 0136
00000020: 23c6 cd35 a881 2a36 d35e 5336 8b3e df36
00000030: fc5a 4136 61f0 9435 a975 d937 a1d8 bb36
00000040: 3d30 be35 bd0e a835 a155 9736 a0cc 2835
00000050: 2c56 f335 093c 9735 09f2 ee35 e91b c035
00000060: 7ea9 f035 8fcf 1936 30c9 c136 3b82 af35
00000070: cb03 9d35 e04b cf36 506d f236 df88 9136
00000080: 439a 1236 d69f 4a36 6d85 be34 4db9 3435
00000090: cb82 3a37 6254 9135 6470 4236 da3e e335
000000a0: a76b 0f36 6ac4 6d37 f0b0 bc35 78bf 3a37
000000b0: 1a0a 6235 a3eb 7c34 b4a5 1337 774d 9f36
000000c0: 950e e935 ca39 6b36 6a5d 9236 b63b 6035
000000d0: d662 8235 5de7 1037 f66f c235 d3a9 d836
000000e0: 20c1 4f37 d8a4 ab35 2fb5 af35 d3c6 3536
000000f0: ad50 c236 cc96 3236 391d 9335 6942 1237
00000100: 2c50 0d36 4679 2636 f12b 2536 c092 a036
00000110: 8075 5e36 d978 e735 1f7b 6436 9b80 e235
00000120: 873a 6a36 9f12 0636 18c5 6736 be3f f535
00000130: 137a 5636 6d44 0435 c32a a535 6462 5636
00000140: ec8e b335 3464 d036 d86d d635 90db 7b35
00000150: f4d5 3a35 ecab ca35 255b dd35 d3b0 2436
00000160: 0019 1c36 242f 2436 b676 9e35 8de2 a135
00000170: 47ab 8136 4a6b 4836 8287 0736 9ab2 b736
00000180: ed64 3c36 c07d 0636 aa9b 3736 ed48 e235
00000190: e65e 2535 dee2 d935 e0bc 2636 e8a7 9a35
000001a0: b61b 1136 4400 2535 9670 3f36 142f 4836
000001b0: 9407 7d35 e386 0436 36a8 ff35 3158 3036
000001c0: c970 8d36 4ca7 4935 5c52 5c35 18fe b035
000001d0: b4d5 1a36 661a 6936 8db9 6635 4fbb ef34
000001e0: 50d5 e035 f0a6 3137 dc50 3936 a46a 0a36
000001f0: 3e27 2536 7dce 5b36 4269 f035 0bdd 8135
3.5145542e-06 1.1728268e-06 1.3005999e-06 5.015107e-06 1.7583075e-06 1.4372717e-06 2.8555687e-07 1.935362e-06
1.5331356e-06 2.5407444e-06 3.1496645e-06 6.653199e-06 2.88122e-06 1.1096819e-06 2.5923206e-05 5.598253e-06
1.4170142e-06 1.2521265e-06 4.510119e-06 6.2882646e-07 1.812999e-06 1.1267849e-06 1.7802823e-06 1.4313238e-06
1.7930722e-06 2.2919592e-06 5.7752695e-06 1.3076418e-06 1.1698515e-06 6.1779137e-06 7.2248877e-06 4.3372706e-06
2.1845487e-06 3.0193382e-06 3.5487338e-07 6.7324873e-07 1.11169165e-05 1.08279e-06 2.8973673e-06 1.693111e-06
2.1371322e-06 1.4172032e-05 1.4058587e-06 1.1131044e-05 8.420626e-07 2.3555053e-07 8.800464e-06 4.7475874e-06
1.7364097e-06 3.5051366e-06 4.362014e-06 8.3533394e-07 9.71452e-07 8.636937e-06 1.4486711e-06 6.457072e-06
1.2383127e-05 1.2788469e-06 1.3091247e-06 2.7086833e-06 5.7910424e-06 2.6611842e-06 1.0960858e-06 8.7177405e-06
2.1057303e-06 2.4806518e-06 2.4612493e-06 4.7854555e-06 3.3148972e-06 1.7246012e-06 3.4046313e-06 1.6875741e-06
3.4902785e-06 1.9978395e-06 3.4536406e-06 1.8272474e-06 3.1959542e-06 4.9273405e-07 1.2305903e-06 3.1945756e-06
1.3378135e-06 6.2105482e-06 1.5976211e-06 9.382429e-07 6.960174e-07 1.5100209e-06 1.649231e-06 2.454083e-06
2.3260363e-06 2.4465344e-06 1.1806467e-06 1.206137e-06 3.864439e-06 2.9864773e-06 2.0195444e-06 5.474617e-06
2.807293e-06 2.0040752e-06 2.7359733e-06 1.6859536e-06 6.1605385e-07 1.6233787e-06 2.4845867e-06 1.1522761e-06
2.1622814e-06 6.1467676e-07 2.8526752e-06 2.9829725e-06 9.426087e-07 1.9748047e-06 1.9047936e-06 2.6277378e-06
4.2152574e-06 7.5121784e-07 8.2076235e-07 1.3186973e-06 2.307218e-06 3.4735071e-06 8.595169e-07 4.4653504e-07
1.6751383e-06 1.058889e-05 2.7614215e-06 2.0625675e-06 2.4609758e-06 3.2753735e-06 1.7912027e-06 9.675581e-07
