Assets/results/AIAgent/ARAgent/ARAgent-2475.onnx (onnx, 75007 bytes, 7 tensors)

network_body.linear_encoder.seq_layers.0.weight f4 [128, 9]
0	0xbe854b44	-0.26033986
1	0x3e17f6c2	0.14840224
2	0x3e58034a	0.21095005
3	0x3e9822bd	0.29714003
4	0x3f1f3def	0.6220388
5	0x3e62e4d1	0.22157599
6	0xbd504f15	-0.05085667
7	0xbe8858d6	-0.26630276
8	0x3e5f6f40	0.21819782
9	0x3f5fe197	0.874536
10	0x3eb5ae4b	0.35484537
11	0xbdb4bac1	-0.08824683
12	0xbec5d72f	-0.38640735
13	0x3ea14013	0.31494197
14	0x3e9f25c7	0.3108351
15	0xbe256594	-0.1615203
16	0xbef56535	-0.47928777
17	0x3ede1cf4	0.43381464
18	0xbe24e9f1	-0.16104867
19	0x3cdda85e	0.027057823
20	0xbec28e4a	-0.37999183
21	0xbe5c7edf	-0.21532772
22	0x3f166a4b	0.5875594
23	0xbf2231ec	-0.63357425
24	0xbcaa84a6	-0.020815205
25	0xbd3086d8	-0.043097347
26	0xbb8d1c0c	-0.004306322
27	0xbe803b29	-0.25045136
28	0xbda26a30	-0.0793041
29	0xbee9702d	-0.45593396
30	0xbf3fed44	-0.74971414
31	0xbdfeeb0d	-0.12447176
32	0x3edcb0ee	0.43103737
33	0xbe00ca21	-0.12577106
34	0xbe79743f	-0.2436075
35	0xbe4fd88a	-0.20297447
36	0x3c178e96	0.009250304
37	0xbe815556	-0.2526042
38	0xbe493d61	-0.1965232
39	0x3c714872	0.014726745
40	0x3d41d6d3	0.047324013
41	0x3e26d153	0.16290788
42	0xbedd3f59	-0.43212393
43	0xbd3cea27	-0.046121743
44	0x3e6fcae6	0.23417243
45	0xbe9ba60b	-0.30400118
46	0xbb86bc99	-0.004111838
47	0x3db88dac	0.09011397
48	0xbebf48a9	-0.37360123
49	0x3dbdf5f5	0.09275428
50	0xbe7ab11a	-0.24481621
51	0x3be03a2c	0.006842872
52	0x3f2929d4	0.6607945
53	0xbdf7b0b5	-0.12094251
54	0xbea9b19b	-0.33143315
55	0x3c7768cd	0.01510067
56	0xbe90edd8	-0.2830646
57	0xbe10a33d	-0.1412477
58	0xbea84daf	-0.32871768
59	0x3ec6a3d2	0.3879686
60	0x3e1ca623	0.15297751
61	0x3e80ae53	0.25133
62	0x3ed44e26	0.41465873
63	0xbf344ccc	-0.7042968
64	0x3ca2c351	0.019868525
65	0xbf0abad7	-0.54191345
66	0xbed43423	-0.41446027
67	0x3f1bdc54	0.6088307
68	0xbe039fbd	-0.12853904
69	0x3e177b1a	0.14793053
70	0xbe5ce82d	-0.21572943
71	0x3db7fcde	0.089837775
72	0x3e81d9ce	0.25361484
73	0x3c1884f0	0.0093090385
74	0x3e07f2ec	0.13276261
75	0x3e7bde38	0.24596488
76	0x3eac05f7	0.335983
77	0xbbfeb4cd	-0.007773018
78	0x3d58a86f	0.052895006
79	0x3f104414	0.5635388
80	0xbda26867	-0.079300694
81	0xbe94f7a4	-0.29095185
82	0xbdf6ed59	-0.12056989
83	0xbd98eaa4	-0.07466629
84	0x3df50a86	0.11964898
85	0xbdc62c9a	-0.09676476
86	0xbe14787b	-0.14499085
87	0x3eecfa92	0.4628492
88	0x3e99e219	0.3005531
89	0xbe86ab1d	-0.26302424
90	0xbf50eafc	-0.8160856
91	0xbab89493	-0.0014082365
92	0xbe64e6f5	-0.22353728
93	0x3ed084ed	0.40726414
94	0xbd57f2dd	-0.052721847
95	0x3deef12a	0.11667092
96	0x3de62612	0.1123773
97	0x3eb2a2a2	0.34889704
98	0x3e507967	0.20358811
99	0x3dd42934	0.10359421
100	0xbddca3a7	-0.10773402
101	0x3e87d95d	0.26533023
102	0x3de5f586	0.112284705
103	0xbcda8294	-0.026673593
104	0x3dba057d	0.09083078
105	0xbe426fd2	-0.18987969
106	0x3da3d00b	0.079986654
107	0xbe3f6b1f	-0.18693207
108	0xbec6b12a	-0.3880704
109	0x3f9932a8	1.1968584
110	0xbe388092	-0.18017796
111	0xbed47bd7	-0.41500732
112	0xbe3ff663	-0.18746333
113	0xbdff7528	-0.12473518
114	0xbeedb77f	-0.4642906
115	0xbec3ce27	-0.3824322
116	0x3df14a11	0.11781705
117	0xbe31b4f9	-0.17354192
118	0x3eb9dec3	0.36302766
119	0xbcdfa48c	-0.027300142
120	0xbd07af27	-0.033126023
121	0x3f121eb6	0.5707811
122	0xbf137a2b	-0.5760829
123	0x3f435081	0.76294714
124	0xbe96144f	-0.2931237
125	0x3f0c85fe	0.54891956
126	0xbe345060	-0.17608786
127	0xbe410a3b	-0.18851559
128	0xbeb650ac	-0.35608423
129	0x3e937d44	0.28806508
130	0xbe382106	-0.17981347
131	0xbd8cb8bd	-0.068711735
132	0xbd8b1a55	-0.06792132
133	0xbe0f0bb2	-0.13969305
134	0x3e56df3d	0.20983596
135	0xbbc6709c	-0.0060559046
136	0x3cd43198	0.025902554
137	0x3ec5cf2c	0.38634622
138	0xbb811f20	-0.003940478
139	0x3f44a559	0.768148
140	0xbd9f89a4	-0.07789925
141	0xbf0c858b	-0.5489127
142	0x3e06d024	0.13165337
143	0xbde7f598	-0.1132614
144	0x3d8b61b3	0.06805744
145	0x3cdf4d1f	0.027258454
146	0x3e96d508	0.29459405
147	0x3eecb0f0	0.46228743
148	0x3f18799f	0.5956058
149	0xbe35818c	-0.177252
150	0xbf7b1a21	-0.98086745
151	0x3e77c83b	0.24197476
152	0x3cbbaa61	0.022908391
153	0xbcb8b91b	-0.022549203
154	0x3d8c466b	0.06849369
155	0xbe003967	-0.12521897
156	0xbf10b68d	-0.5652855
157	0xbe3f5208	-0.18683636
158	0xbf00c9b8	-0.503078
159	0xbdf38685	-0.11890892
160	0xbe3e7276	-0.18598351
161	0xbd7a71a5	-0.061143536
162	0xbe7ca577	-0.24672495
163	0x3ebe7302	0.3719712
164	0x3d57458c	0.05255656
165	0x3ec64fd2	0.38732773
166	0xbe84720c	-0.2586826
167	0x3ecd782d	0.4013075
168	0xbe07ee1c	-0.13274425
169	0x3de38fac	0.111113876
170	0x3ea92769	0.3303788
171	0x3f190eb7	0.5978808
172	0x3e835fb4	0.25658953
173	0x3eb87d87	0.3603327
174	0xbe3c416c	-0.18384331
175	0xbe45d5e7	-0.19319879
176	0x3cedb115	0.029015103
177	0x3d80b28c	0.06284055
178	0xbe7b02d9	-0.24512805
179	0x3e941513	0.28922328
180	0xbe7d2b2c	-0.247235
181	0x3ef38ecd	0.47569886
182	0x3d1b2046	0.037872575
183	0xbe3b244d	-0.18275566
184	0x3e4390b4	0.19098169
185	0x3e1677c4	0.14694124
186	0x3df4fb0a	0.119619444
187	0xbcab7b9f	-0.02093297
188	0xbe034b7f	-0.12821768
189	0xbea9c316	-0.3315665
190	0x3eb9b7c4	0.36273015
191	0xbec4c79c	-0.3843354
192	0x3e95c9d3	0.29255542
193	0x3ec8880c	0.39166296
194	0x3e269c1b	0.16270487
195	0xbf361145	-0.711201
196	0x3e80bf84	0.25146115
197	0xbefc7641	-0.4930897
198	0xbe8a5de7	-0.27024767
199	0xbf03c182	-0.51467144
200	0x3cb11230	0.021615118
201	0xbe7614af	-0.24031328
202	0x3eee9fa3	0.46606168
203	0x3e5243f3	0.20533733
204	0xbe0c584b	-0.13705556
205	0x3dfb2ae4	0.1226404
206	0xbdca06d9	-0.09864587
207	0x3f34c171	0.7060767
208	0xbe290a1e	-0.16507766
209	0x3f22cdf1	0.6359549
210	0xbe237628	-0.15963042
211	0xbee5a589	-0.44852856
212	0x3e57cf99	0.21075286
213	0x3eb6c28c	0.35695302
214	0x3cff6c88	0.031179681
215	0xbe55ba90	-0.20871949
216	0xbf0c6869	-0.5484682
217	0xbe5be7ba	-0.21475115
218	0x3e6981dc	0.22803444
219	0x3db1a29b	0.08673593
220	0x3ec5d065	0.38635555
221	0x3e806e65	0.25084224
222	0x3db08b60	0.08620334
223	0x3eccc2ba	0.39992315
224	0x3e84a191	0.25904515
225	0xbca79f9a	-0.020461846
226	0x3f42f686	0.76157415
227	0x3e92dc39	0.28683642
228	0x3e85372a	0.2601865
229	0x3ed8bad3	0.42330036
230	0x3e7f3f2a	0.24926439
231	0xbd7d25fb	-0.0618038
232	0x3e0e151b	0.13875239
233	0x3cf0cd20	0.029394686
234	0xbda55fb8	-0.080748975
235	0xbe603673	-0.2189577
236	0xbed0a4a3	-0.40750608
237	0xbcd4e113	-0.02598623
238	0x3d6ae6b8	0.057348937
239	0xbe8669d5	-0.26252618
240	0xbdccdb7a	-0.10002799
241	0xbdbfa40f	-0.093574636
242	0x3ef1f06b	0.47253737
243	0x3dcdd291	0.10049928
244	0x3ec9777a	0.39348966
245	0xbe94384c	-0.289492
246	0x3f1ab8e1	0.6043835
247	0xbc1221c2	-0.008919181
248	0x3d7f3032	0.062301822
249	0x3e1e0d2c	0.15434712
250	0x3dfe8d34	0.12429276
251	0x3d34e647	0.044164922
252	0x3c94784e	0.018123772
253	0x3e8a73fd	0.27041617
254	0x3ecc59cb	0.39912257
255	0xbd0a5d80	-0.033780575

network_body.linear_encoder.seq_layers.0.bias f4 [128]
0	0x3bf2517f	0.007394969
1	0xbc181767	-0.009282923
2	0xbaac19f4	-0.0013130293
3	0xbc0d230e	-0.008614315
4	0xbbcd6397	-0.0062679756
5	0x3b3f1a92	0.0029160124
6	0x3b492b6f	0.0030696054
7	0x3b837423	0.0040116473
8	0x3b7b0cf0	0.0038307272
9	0x3af62b0e	0.0018781142
10	0x3b81ba39	0.003958967
11	0x3b950265	0.0045474046
12	0xbc21fe2c	-0.009887259
13	0xba1dd073	-0.0006020136
14	0x3b3923ac	0.0028250022
15	0xb99e4de5	-0.00030194144
16	0x3bceafe6	0.00630759
17	0x3b107fc5	0.0022048813
18	0xbb8b31a9	-0.0042478633
19	0xbbe80961	-0.007081196
20	0xba5c3a65	-0.00084010354
21	0x3ae9bded	0.0017833092
22	0xbc9271ac	-0.017876469
23	0xbb2ef757	-0.002669772
24	0xbc2627aa	-0.010141293
25	0x3b1396d1	0.0022520314
26	0x3c81c1bb	0.015839448
27	0x3a23c71f	0.0006247628
28	0xbbe4977c	-0.006976066
29	0x3c1e5d92	0.009665864
30	0xbae2dd92	-0.0017308465
31	0xbbdf1403	-0.0068078055
32	0x3bebb7e9	0.0071935547
33	0xb9f2c27a	-0.00046302733
34	0xbc898fae	-0.016792145
35	0xbbda8e4f	-0.0066697965
36	0xbbb3649a	-0.005474639
37	0xb9c7373f	-0.000379974
38	0xb9b59b48	-0.00034638704
39	0x3c01569b	0.0078941835
40	0xba59d2fe	-0.00083093334
41	0x3b6209bb	0.0034490663
42	0x3ba3a67a	0.004994211
43	0xbb484399	-0.003055787
44	0x3a32b305	0.0006816837
45	0x3c4e4cfc	0.012591597
46	0xbc0bfbf2	-0.008543955
47	0x3bbaf0f3	0.005704993
48	0xb9cd10c5	-0.0003911314
49	0x3b038a9c	0.0020071631
50	0xbb3aea5c	-0.0028521037
51	0xbb5be1f8	-0.0033551436
52	0xbb9054a4	-0.004404621
53	0xbc049eab	-0.00809447
54	0xbb167fcb	-0.0022964354
55	0x3a7c7cf3	0.0009631656
56	0xbbec8c1c	-0.007218851
57	0xbbd936f4	-0.0066288654
58	0x3bef9b5f	0.007312223
59	0xbbf530be	-0.007482617
60	0xbab61511	-0.0013891776
61	0xbc3c50f7	-0.011493913
62	0x3a4b0616	0.00077447423
63	0xbb6bbd62	-0.0035971035
64	0xba64858d	-0.00087174104
65	0x3c6a6c86	0.014308101
66	0x3b014d51	0.0019729922
67	0x3a056450	0.0005088495
68	0x3a50a48a	0.00079590885
69	0x3aca8b98	0.0015452979
70	0xb9c234b6	-0.00037041836
71	0x3bc4ce2f	0.0060060243
72	0xba760ab8	-0.00093857525
73	0x3bea473e	0.007149606
74	0xbb274ed9	-0.0025529175
75	0xbada1918	-0.0016639559
76	0x3b066897	0.0020509118
77	0xbc01417a	-0.007889146
78	0x3ba93c98	0.005164694
79	0x3bce0064	0.0062866677
80	0xbbca5af4	-0.0061753932
81	0x3b265e5a	0.0025385828
82	0x3c6d7277	0.014492623
83	0xbbeffed2	-0.007324078
84	0xbbcba85d	-0.006215139
85	0x3adfab62	0.0017064626
86	0xbc355979	-0.011068695
87	0xbc4d034f	-0.012512996
88	0xba5686a6	-0.00081835163
89	0xbbe708d8	-0.007050615
90	0xbba00760	-0.0048836917
91	0x3bae0a8e	0.005311317
92	0x3b7da412	0.003870253
93	0xbc59a713	-0.0132844625
94	0xbb02abc3	-0.0019938804
95	0xbc0659b2	-0.008200096
96	0xbbb1c914	-0.0054255817
97	0x3b9d7a83	0.0048058643
98	0x3b35f0db	0.002776197
99	0xbc019704	-0.00790954
100	0x3c8e3070	0.017357081
101	0xbc3c1130	-0.011478707
102	0x3a226788	0.0006195237
103	0xba33e19d	-0.0006861927
104	0xbb328712	-0.0027241153
105	0xbb6641fc	-0.0035134545
106	0x3ba3b38a	0.004995768
107	0xba768f00	-0.0009405464
108	0xbb761f33	-0.0037555217
109	0x3a883466	0.0010391593
110	0x3b914f78	0.0044345222
111	0x3a0cc3ff	0.0005369782
112	0xbbecee73	-0.007230574
113	0xbba29c2c	-0.004962465
114	0x3b88e78b	0.0041779927
115	0xbbfce4be	-0.007717698
116	0xbb0a243e	-0.002107873
117	0xbbbd1cff	-0.005771279
118	0xbc43a2b1	-0.011940644
119	0xbc7bfd96	-0.015380284
120	0xbb8fb592	-0.0043856585
121	0xbc0c8fcf	-0.0085792085
122	0x3b901088	0.004396502
123	0x3c1cd7e0	0.009572953
124	0x3b02a456	0.0019934378
125	0x3b00c1e4	0.0019646818
126	0x3b09957d	0.0020993643
127	0x3b71c33f	0.0036890057

network_body.linear_encoder.seq_layers.2.weight f4 [128, 128]
0	0xbc814f70	-0.015784949
1	0xbc555e34	-0.013022948
2	0xbd89318a	-0.06698902
3	0xbdefc65c	-0.11707756
4	0xbd3e24d4	-0.04642184
5	0x3dc55d13	0.09636893
6	0x3c49128b	0.012272487
7	0x3d064246	0.032778047
8	0x3cdd70f1	0.027031394
9	0x3da7a029	0.08184845
10	0xbdc6c5ea	-0.09705718
11	0xbdbe1a3f	-0.0928235
12	0xbda1165f	-0.07865595
13	0xbbec9e6f	-0.007221035
14	0xbbf81e73	-0.007571989
15	0x3d2c2d64	0.042035475
16	0xbe2d6d03	-0.16936116
17	0x3d89e2c7	0.067327075
18	0x3b03a3e0	0.002008669
19	0xbe500d95	-0.20317681
20	0xbd762924	-0.06009783
21	0xbda3e031	-0.080017455
22	0x3db532dc	0.08847591
23	0x3d7fbf0e	0.062438063
24	0x3cfcdc56	0.030866783
25	0xbbdfa14a	-0.006824647
26	0x3e02fc25	0.12791498
27	0xbdc46398	-0.095893085
28	0x3cc0702d	0.02349099
29	0xbdbb9b5e	-0.09160493
30	0xbd1acb25	-0.03779139
31	0x3e03de98	0.12877882
32	0x3e1e5044	0.15460306
33	0xbcfba6be	-0.030719157
34	0x3dc78f8a	0.09744175
35	0x3decef55	0.115690865
36	0xbcac4eb4	-0.021033622
37	0xb983439e	-0.00025036646
38	0x3d5e7bd9	0.05431733
39	0xbce6a230	-0.028153509
40	0xbc638182	-0.013885858
41	0xbdc67fc1	-0.09692336
42	0xbe172589	-0.14760412
43	0x3e099a77	0.1343783
44	0x3d8ee288	0.06976801
45	0xbcaad422	-0.020853106
46	0xbcbddb9d	-0.023176009
47	0x3e7e3778	0.24825847
48	0xbd4d4fbd	-0.050124872
49	0x3c30824b	0.010773252
50	0x3d947e28	0.07250625
51	0x3dd197d3	0.10234036
52	0x3e35ef7a	0.17767134
53	0xbd2084e9	-0.039189253
54	0xbcbc30ee	-0.02297255
55	0x3c988d22	0.018621985
56	0xbd8ba0fc	-0.06817815
57	0x3dd0f89c	0.102036685
58	0xbd59f237	-0.05320951
59	0xbb09df22	-0.0021037539
60	0x3db4c89c	0.08827326
61	0x3d403366	0.046924017
62	0xbc328eec	-0.010898333
63	0xbd68e18c	-0.056855723
64	0xbd85c19e	-0.0653107
65	0xbd926384	-0.07147887
66	0x3d22fafb	0.039790135
67	0x3d38ac8d	0.045086432
68	0x3d879f5b	0.066221915
69	0xbd96bae6	-0.07359867
70	0xbdccc2f9	-0.099981256
71	0x3d1910ef	0.037369665
72	0x3c9b8a6d	0.018986905
73	0x3e22b39a	0.15888825
74	0x3d9bc341	0.07605601
75	0x3ccf9c69	0.025343137
76	0x3c41996a	0.011816362
77	0xbd9f3de0	-0.077754736
78	0xbbe68e89	-0.0070360345
79	0xbd88648f	-0.06659805
80	0x3d1eafa9	0.03874174
81	0x3cbd2c0c	0.023092292
82	0x3ddd2daf	0.10799729
83	0x3de27777	0.11057942
84	0xbc864431	-0.016389938
85	0xbd83b881	-0.06431676
86	0xbe27b15e	-0.16376254
87	0x3d93898a	0.07203968
88	0x3e09d261	0.1345916
89	0x3decc60a	0.115612105
90	0x3e2ad52a	0.16682878
91	0xbe01d94a	-0.12680545
92	0xbd911bda	-0.070853904
93	0x3d719c81	0.058987144
94	0xbd79f1c2	-0.061021574
95	0xbcdaff46	-0.026733052
96	0x3e12a797	0.14321743
97	0xbde01040	-0.109405994
98	0xbe031f02	-0.12804797
99	0x3d301601	0.042989735
100	0xbdbba980	-0.09163189
101	0xbd078379	-0.033084366
102	0xbcf56d22	-0.029959265
103	0xbcd21ecc	-0.02564945
104	0xbd585b5b	-0.0528215
105	0x3cbd5032	0.02310953
106	0xbbdf6947	-0.00681797
107	0x3dd8f8fc	0.10594365
108	0xbdaa3ae0	-0.08312011
109	0x3c9e7868	0.019344524
110	0x3d85fca3	0.06542327
111	0x3d99fa9d	0.07518504
112	0xbe166e79	-0.1469058
113	0x3dd24fd5	0.10269133
114	0xbd019e2f	-0.031644996
115	0xbdc89b16	-0.09795205
116	0xbda4278a	-0.08015354
117	0x3d7f919f	0.062394734
118	0x3db0797c	0.08616921
119	0xbe026b23	-0.12736182
120	0xbcfc270a	-0.030780334
121	0x3c609081	0.013706327
122	0x3d4d63d4	0.05014403
123	0x3d66487b	0.056221467
124	0x3d38b12a	0.04509083
125	0xbd0b2e62	-0.03397978
126	0x3d0ee4c8	0.03488615
127	0xbc6fb54c	-0.014630627
128	0x3d83453e	0.06409691
129	0xbd214440	-0.03937173
130	0x3e889f45	0.26684013
131	0x3d68c102	0.05682469
132	0xbd439c50	-0.047756493
133	0xbdc490cb	-0.095979296
134	0x3c2d679e	0.010583786
135	0xbe0aec6b	-0.13566749
136	0x3e3cf8b3	0.18454246
137	0x3d9d0a23	0.07667949
138	0xbdc42809	-0.095779486
139	0xbb61eed1	-0.003447462
140	0xbd584266	-0.052797697
141	0x3b8303a8	0.0039982386
142	0x3dabb461	0.08384014
143	0xbd47e0cd	-0.04879837
144	0xbdb8a7c0	-0.09016371
145	0x3d95f0ad	0.07321296
146	0xbd0240ba	-0.03180001
147	0x3c7ebb19	0.015547537
148	0x3deb77e0	0.11497474
149	0xbb2d1f54	-0.0026416378
150	0xbb6f8381	-0.0036546888
151	0x3ca01413	0.019540822
152	0xbe80e266	-0.25172728
153	0x3d8266f5	0.06367294
154	0xbd07733d	-0.033068884
155	0x3d0e4296	0.03473147
156	0x3d096f74	0.033553556
157	0xbe80c5e4	-0.2515098
158	0xbc0b25b6	-0.008492878
159	0xbca98fa1	-0.02069837
160	0x3bf13b7f	0.007361829
161	0x3cac1749	0.021007197
162	0x3d09e1af	0.033662494
163	0x3e338b38	0.17533576
164	0x3e37c6c6	0.1794692
165	0xbda52005	-0.08062748
166	0x3e347473	0.17622547
167	0x3e196844	0.1498118
168	0xbcc05ab5	-0.023480752
169	0x3e3a6750	0.18203473
170	0x3d329d32	0.043606944
171	0xbc8ac0b5	-0.016937593
172	0xbbcabca4	-0.0061870385
173	0xbe07f891	-0.13278414
174	0xbe00a7f7	-0.12564074
175	0x3d26a408	0.040683776
176	0xbe310f4b	-0.1729099
177	0x3c3ceb8f	0.011530771
178	0xbd01874e	-0.031623177
179	0xbb3803ea	-0.0028078505
180	0xbd14f9a3	-0.036370885
181	0xbd20da04	-0.039270416
182	0xbe3d0459	-0.1845869
183	0x3ce64ba0	0.028112233
184	0x3daae972	0.083453074
185	0xbe04ad97	-0.12956844
186	0x3de6af5e	0.112639174
187	0x3d9f4b3e	0.07778023
188	0x3c787f36	0.015167048
189	0xbd853463	-0.065041326
190	0xbc41dfcf	-0.011833145
191	0x3dc4f2f8	0.09616655
192	0xbe10430a	-0.14088073
193	0xbca96fa2	-0.020683113
194	0x3dbd85a8	0.092540085
195	0x3a9a43a3	0.0011769425
196	0xbd92d8c0	-0.07170248
197	0x3d323480	0.0435071
198	0x3db14c05	0.08657078
199	0x3da4c9a4	0.080462724
200	0x3d045975	0.032311875
201	0x3d50ee55	0.05100854
202	0xbda6947d	-0.08133791
203	0x3d488ba5	0.0489613
204	0x3d9df6cb	0.07713088
205	0x3d9b5fae	0.07586609
206	0x3e10577c	0.14095873
207	0x3debe21d	0.11517737
208	0x3d6fa6c0	0.058508635
209	0x3db3a9ac	0.08772597
210	0xbdd133a2	-0.10214926
211	0x3dc0cf72	0.09414567
212	0x3d71a97a	0.058999516
213	0xbd4453f6	-0.047931634
214	0xbd9068b5	-0.07051221
215	0xbd4a413f	-0.04937863
216	0x3d831073	0.06399622
217	0xbe306bae	-0.17228577
218	0x3bf60031	0.007507347
219	0x3d4c3268	0.04985276
220	0xbd0a6683	-0.03378917
221	0xbc8048bb	-0.01565968
222	0x3d898e96	0.06716649
223	0x3dc92e5f	0.09823298
224	0xbbd02af4	-0.0063527767
225	0x3c3675d1	0.011136488
226	0x3e3e081e	0.18557784
227	0xbe0ab99f	-0.13547371
228	0xbdeb9510	-0.11503041
229	0xbdceb34d	-0.10092793
230	0x3c76ce59	0.015063846
231	0x3dd3e2fa	0.10346027
232	0xbd9dc0db	-0.077028
233	0x3dc691ab	0.09695753
234	0x3d1912a4	0.037371293
235	0xbe7115a0	-0.23543406
236	0xbcb59bb7	-0.022168977
237	0xbe09a4fd	-0.13441844
238	0x3d29aeab	0.041426342
239	0xbd27f2ef	-0.041003164
240	0xbe2e96be	-0.17049691
241	0xbdaca102	-0.08429147
242	0x3df3abc0	0.11897993
243	0xbc395598	-0.011311911
244	0x3dab5060	0.0836494
245	0xbbc63db6	-0.006049837
246	0xbd23b0f7	-0.03996369
247	0x3d85c760	0.065321684
248	0xbdd1840b	-0.10230263
249	0xbda8ea8b	-0.082478605
250	0x3deca27b	0.11554428
251	0xbcbd9d87	-0.023146404
252	0x3dc35e24	0.0953944
253	0x3d567302	0.052355774
254	0x3c972f92	0.0184553
255	0x3b2eff33	0.0026702404

network_body.linear_encoder.seq_layers.2.bias f4 [128]
0	0xbbad2382	-0.005283774
1	0x3b93964a	0.004504
2	0x3aeed8ee	0.0018222609
3	0xbb6c45c1	-0.0036052319
4	0xbb46f80b	-0.0030360247
5	0x3bdaa7ed	0.0066728503
6	0xba71671b	-0.00092087843
7	0x3b8a1f14	0.0042151306
8	0xbbc18d9f	-0.005906775
9	0x3a5caf7a	0.0008418482
10	0xbbb94110	-0.005653508
11	0x3ab3a21a	0.0013704926
12	0x3b38a8b8	0.0028176736
13	0x3b8d0897	0.0043040025
14	0xba0f4763	-0.00054656545
15	0x3b913f90	0.004432626
16	0xbb58d22d	-0.003308426
17	0x3b916cb5	0.0044380077
18	0xbb8567a4	-0.004071193
19	0xbb296283	-0.002584607
20	0xb9d5a5b2	-0.00040749979
21	0x3bb8a349	0.0056346995
22	0x3c01f5b7	0.007932118
23	0x3b1db14c	0.0024061976
24	0xbb45a7b0	-0.0030159764
25	0xbc143c4c	-0.009047579
26	0xbb5d0a3c	-0.0033728024
27	0x3bb1f46e	0.0054307496
28	0x3b9b1133	0.004732275
29	0xbbb824c8	-0.005619619
30	0xbb264ece	-0.002537656
31	0xbc160dbb	-0.009158547
32	0xbbb9ecd4	-0.005673984
33	0x3b9e8c50	0.004838504
34	0xbae0fda7	-0.0017165438
35	0xbc34eec2	-0.011043252
36	0x3aac3e67	0.0013141156
37	0xbb941f56	-0.004520337
38	0xbbd77c8c	-0.0065761264
39	0x3b6c2dca	0.0036038035
40	0xbba23d70	-0.0049511716
41	0xba0c3f69	-0.0005350025
42	0x3c1fb323	0.009747299
43	0x3bc84676	0.006111915
44	0xbac71d75	-0.0015191274
45	0x3b33c258	0.002742907
46	0xb9e69f99	-0.00043987928
47	0x3b6a93be	0.0035793628
48	0xbb852d2b	-0.0040642223
49	0x3b57772c	0.0032877428
50	0x3b50e4a2	0.0031874557
51	0x3bf962ed	0.00761067
52	0x39f56e9f	0.0004681246
53	0xbb3c96c6	-0.0028776391
54	0x3b2af59f	0.0026086343
55	0x3a58b3b2	0.0008266523
56	0xbba276bd	-0.0049580024
57	0xbbd50379	-0.006500658
58	0xba935226	-0.0011239692
59	0x3b852b37	0.0040639895
60	0x3aa5c626	0.0012647554
61	0xba9fa697	-0.0012180385
62	0xbbbdfc9b	-0.005797935
63	0x3b811eca	0.003940438
64	0x3a3b88f4	0.00071538915
65	0x3be36f44	0.006940754
66	0xbbb5bb04	-0.0055459756
67	0x3bde25d5	0.0067794123
68	0x3c06d338	0.008229069
69	0xbb4bd2ab	-0.003110091
70	0xbab43821	-0.0013749638
71	0xba7c99bb	-0.0009635945
72	0xbb847b2d	-0.004043004
73	0x3bde0d28	0.0067764707
74	0xba68b1fc	-0.00088766194
75	0xbaae39b1	-0.001329234
76	0xbbed2340	-0.007236868
77	0xbc1f592f	-0.009725853
78	0x3a4ce038	0.00078153936
79	0x3a3631e0	0.0006950181
80	0xbb317016	-0.0027074865
81	0xbbda71bf	-0.0066663916
82	0xbb4dbddc	-0.0031393683
83	0x3b0309a1	0.0019994753
84	0x3a062b9b	0.0005118192
85	0x3b18cbc0	0.0023314804
86	0xba6bc5e3	-0.0008994026
87	0xbc0326f8	-0.008004896
88	0xbb957f57	-0.0045622992
89	0xbb838436	-0.0040135635
90	0x3be8bd13	0.0071026175
91	0xba847633	-0.0010106027
92	0x3b4bb344	0.0031082192
93	0xbb3d5199	-0.0028887747
94	0x3b21487a	0.002460985
95	0xbae15673	-0.0017191902
96	0x3b60dc72	0.0034311083
97	0x3baa2083	0.005191864
98	0xbbd19c4f	-0.0063968073
99	0xbbe8e32f	-0.0071071605
100	0xbbc195b3	-0.005907738
101	0xbb52177a	-0.003205745
102	0xb8fb47ca	-0.000119819844
103	0xbbac2066	-0.0052528856
104	0xb9e6300e	-0.00043904822
105	0xbc2b1692	-0.010442393
106	0x3bddbcf0	0.006766908
107	0xbbd32e0c	-0.006444698
108	0x3bbe35bc	0.0058047455
109	0x3c063697	0.008191726
110	0xbbd0b5fd	-0.006369351
111	0xbb115bae	-0.002217989
112	0x3c029680	0.007970452
113	0x3b8d093d	0.00430408
114	0x38f2107a	0.00011542528
115	0xbbe569e4	-0.0070011485
116	0x3c8047e3	0.015659278
117	0x3ab0e175	0.0013494926
118	0xbbe7d780	-0.00707525
119	0x3aed78a0	0.0018117614
120	0xbb5db761	-0.0033831226
121	0xbc029ccd	-0.0079719545
122	0xbbb52955	-0.005528609
123	0x3b7a06fa	0.003815113
124	0xbbdb8461	-0.0066991304
125	0xbaf89191	-0.0018964281
126	0x3b8d1cc1	0.0043064062
127	0x3b8ef3c2	0.0043625543

action_model._continuous_distribution.log_sigma f4 [1, 3]
0	0xbbd25ae3	-0.006419526
1	0xbc8020ef	-0.015640704
2	0xbca3f5e0	-0.020014703

action_model._continuous_distribution.mu.weight f4 [3, 128]
0	0xbd16a917	-0.03678235
1	0x3cdb1074	0.026741244
2	0x3c4b856c	0.012421947
3	0xbc7c74c6	-0.0154087
4	0x3c37ac00	0.011210442
5	0x3cba15d9	0.022715496
6	0x3c7d6a08	0.015467174
7	0x3c6331a0	0.013866812
8	0xbcb8e315	-0.022569219
9	0xbcc73e14	-0.024321593
10	0xbbd760b4	-0.006572807
11	0x3cb6bcdf	0.022306858
12	0x3cb06fec	0.021537744
13	0x3cf59d4d	0.029982233
14	0x3bb122c5	0.005405756
15	0xbd18e58e	-0.037328295
16	0xbc2a3811	-0.010389344
17	0x3d130bdf	0.035899993
18	0xbc127bfc	-0.008940693
19	0xbc17c9f2	-0.009264456
20	0xbd03d46c	-0.032185003
21	0x3d2b596c	0.041833326
22	0x3d230431	0.03979892
23	0x3c8ce086	0.017196905
24	0xbc1a4010	-0.009414688
25	0xbcb8c678	-0.022555575
26	0xbc2a42bb	-0.010391886
27	0x3cb677b3	0.022273874
28	0x3d1b9a5f	0.037989017
29	0xba0ba8ef	-0.0005327602
30	0xbbeb2e53	-0.007177153
31	0xbc9965e7	-0.018725349
32	0xbb8b6641	-0.004254133
33	0xbcb0a199	-0.02156143
34	0xbc2601f0	-0.010132298
35	0xbc468c8b	-0.012118469
36	0x3c759f62	0.014991613
37	0xbbf7d061	-0.0075626825
38	0xbbec1d88	-0.007205669
39	0x3cb8168f	0.022471694
40	0x3a843e05	0.0010089284
41	0xba667993	-0.00087919197
42	0x3d28843e	0.04114174
43	0x3cb71e1e	0.022353228
44	0xbc9dd404	-0.019266136
45	0x3cbb579e	0.022868928
46	0x3c19183c	0.009344157
47	0x3ca0f6bb	0.0196489
48	0xbc8b7e2c	-0.017027937
49	0x3bd4ce72	0.0064943368
50	0xbc6014af	-0.013676806
51	0x3d1fb826	0.038993977
52	0xbcb902ba	-0.022584308
53	0xbc4016aa	-0.0117241535
54	0x3caa7cb1	0.02081141
55	0x3c35dd6a	0.0111001525
56	0xbca3cdc9	-0.019995587
57	0xbd07a10c	-0.03311257
58	0xbb29c032	-0.002590191
59	0x3cbae4b1	0.022814127
60	0xbcb32e97	-0.021872802
61	0x3af16efa	0.0018419914
62	0xbc773d02	-0.015090229
63	0x3cec3ba3	0.02883703
64	0x3c9690f6	0.01837967
65	0x3cd0c756	0.025485676
66	0xbbb2982a	-0.0054502683
67	0xbab620b3	-0.0013895243
68	0x3d11d5df	0.035604354
69	0xbb50ef0a	-0.003188076
70	0x3c05bdb5	0.008162905
71	0xbc609d03	-0.0137093095
72	0xbc9aeeda	-0.018912721
73	0xbcb8252a	-0.022478659
74	0x3c39819d	0.011322406
75	0xbc272ba7	-0.010203279
76	0xbce6c242	-0.028168801
77	0xbaf3dd62	-0.0018605406
78	0x3c87697d	0.016529793
79	0xbcb0cea1	-0.021582903
80	0xbcdf6517	-0.027269883
81	0xbbcbebaf	-0.006223164
82	0x3c133dd1	0.008986906
83	0xbd233515	-0.039845545
84	0x3c6ca369	0.014443257
85	0x3c932d84	0.01796604
86	0xbceaa79e	-0.02864438
87	0xbc223548	-0.009900399
88	0xbc0dafe2	-0.008647891
89	0x3be22976	0.006901915
90	0x3bfc19fe	0.007693528
91	0x3bf9e553	0.0076262145
92	0x3cdd02f6	0.026978951
93	0x3b8e529a	0.004343343
94	0x3d09c349	0.033633504
95	0xbb55ee26	-0.0032643168
96	0xbd230a2d	-0.039804626
97	0x3cafbe22	0.021452967
98	0x3ab47d20	0.00137702
99	0xbc84e65e	-0.016223129
100	0xbd11c2b3	-0.03558607
101	0x3a88665b	0.0010406481
102	0x3c6cf00e	0.01446153
103	0xbbb34253	-0.005470553
104	0xbcd6ca58	-0.026219532
105	0x3c348cd3	0.011019903
106	0x3ae6b4ca	0.0017601487
107	0xbbb31787	-0.005465451
108	0x3cdfcfdd	0.027320797
109	0x3d817866	0.06321792
110	0xbca7880e	-0.020450618
111	0xbc82bb99	-0.015958594
112	0x3cdcbb72	0.02694485
113	0x3c23b0c8	0.009990878
114	0x3c54a838	0.01297956
115	0xbc9b5f80	-0.018966436
116	0x3bc92739	0.006138709
117	0x3bfb193d	0.0076629207
118	0xbc2e5951	-0.010641412
119	0x3ca25faa	0.019821007
120	0xbb176325	-0.0023099866
121	0xbd01cc7f	-0.031689163
122	0xbcc2d4c4	-0.023783095
123	0x3d0e4c32	0.034740634
124	0xbc4b1f76	-0.012397638
125	0xbd110250	-0.035402596
126	0x3cfca447	0.030840052
127	0x3d096bd4	0.0335501
128	0xbbc85d03	-0.0061146035
129	0xbba18c60	-0.004930064
130	0xbc1882f3	-0.0093085645
131	0xbbc16355	-0.005901734
132	0x3b9d95ab	0.0048091016
133	0xbbaf26a7	-0.005345184
134	0xbcd0791e	-0.025448378
135	0x3c121dcf	0.00891824
136	0xbc79c0ec	-0.01524375
137	0xbd3108cd	-0.043221284
138	0x3c05a244	0.008156363
139	0x3b8fbc53	0.0043864637
140	0xbbc4e212	-0.006008395
141	0x3cef6bed	0.029226268
142	0xbcc563ee	-0.024095502
143	0xbca55a3c	-0.020184629
144	0xbc300aea	-0.01074479
145	0x3b1b5ea5	0.0023707536
146	0x3c99e0da	0.018783975
147	0x3c3a3512	0.011365192
148	0x3c9450ab	0.018104872
149	0xbbcaf4ba	-0.0061937245
150	0xbbc78f0d	-0.006090051
151	0xbc97525a	-0.018471885
152	0x3b84ad1e	0.0040489575
153	0xbcc84a8b	-0.024449607
154	0x3cc6ef40	0.024284005
155	0xb8ed16a9	-0.000113052614
156	0x3c896106	0.016769897
157	0x3a6bc699	0.0008994132
158	0x3cff796c	0.031185828
159	0x3c62a967	0.013834334
160	0xbc88c867	-0.016697122
161	0xbb906496	-0.004406522
162	0x3cc287ce	0.023746397
163	0xbbebea9c	-0.0071995985
164	0xbd454656	-0.04816278
165	0xbbf96b1e	-0.0076116463
166	0x3bd9d79a	0.006648016
167	0xbc139df1	-0.009009824
168	0xbced843b	-0.028993716
169	0x39b5edd4	0.00034700206
170	0xbbb3d2a0	-0.005487755
171	0xbcbc2342	-0.022966031
172	0x3c0cf71b	0.008603836
173	0xba2cee24	-0.0006596765
174	0xbb8fc99c	-0.0043880474
175	0xbcb85a30	-0.022503942
176	0xbcce17f1	-0.0251579
177	0xbc9a3858	-0.018825695
178	0x3c36768b	0.011136661
179	0xbc18dd79	-0.009330147
180	0xbcbfbb81	-0.023404839
181	0x3cfb909d	0.030708605
182	0x3c5cf9b6	0.01348727
183	0x3c8c4407	0.017122282
184	0x3c344c2a	0.011004487
185	0xbcb19d65	-0.021681497
186	0xbd3c0050	-0.045898736
187	0xbca95f10	-0.020675212
188	0x3c894f43	0.016761428
189	0xbcb5f0a9	-0.022209482
190	0xbbb1607f	-0.0054131146
191	0x3bbe0a6e	0.005799583
192	0xbc6b5c1b	-0.014365221
193	0xbcf29dc2	-0.02961624
194	0xbac1a937	-0.0014775161
195	0x3cf4220f	0.029801397
196	0xbc267e56	-0.010161957
197	0xbbed880d	-0.0072488845
198	0x3a80ee8c	0.0009836718
199	0x3d06fa0b	0.032953303
200	0xbb9029c2	-0.004399509
201	0xbcd79549	-0.026316302
202	0xbbbd7db3	-0.005782807
203	0xbbe83ce6	-0.007087338
204	0x3c94424f	0.018098025
205	0xbb5e6c27	-0.0033938976
206	0xbc4e503f	-0.012592374
207	0x395fb829	0.00021335542
208	0x3d053854	0.03252442
209	0x3c2acea9	0.010425248
210	0x3c9bb647	0.019007815
211	0x3cb6c1c0	0.022309184
212	0xbb3387f6	-0.0027394271
213	0x3c5104cf	0.012757494
214	0xbd6716c0	-0.05641818
215	0x394cb405	0.00019522019
216	0xbbfd022d	-0.0077212066
217	0x3cd43c53	0.025907671
218	0xbc0e787f	-0.008695721
219	0x3bb95354	0.0056556854
220	0xbb817c1e	-0.0039515635
221	0xbc0f350a	-0.008740673
222	0xbc307ab8	-0.010771446
223	0x3c90c95f	0.017674146
224	0x3a93ac9e	0.0011266654
225	0x3ba3b3cb	0.004995798
226	0x3c56ffb6	0.01312249
227	0x3cb6144a	0.022226471
228	0x39e957f2	0.00044506748
229	0xbc9be6ef	-0.019031016
230	0x3c13845b	0.009003724
231	0xbccfce91	-0.025367053
232	0x3cf88ab4	0.030339576
233	0xba27b8dd	-0.0006398091
234	0xbb95fde3	-0.004577385
235	0xbd172179	-0.036897156
236	0xbc12daef	-0.008963331
237	0x3ca201f6	0.019776326
238	0x3cd02eb4	0.025412895
239	0xbc3fab26	-0.01169852
240	0xbcaad563	-0.020853704
241	0x39c31846	0.00037211383
242	0xbb97e00f	-0.004634864
243	0x3d085ea7	0.033293393
244	0x3cda5ace	0.026654627
245	0xbcf6707b	-0.030082932
246	0xbc46d3fc	-0.012135502
247	0xbc9e053c	-0.019289605
248	0xbd049eba	-0.032377936
249	0xbc8b88f5	-0.01703308
250	0x3bd8f5f0	0.006621115
251	0x3b01e8d0	0.0019822605
252	0xbd0b6c6a	-0.03403894
253	0xbbba34c1	-0.0056825583
254	0xbc1d9f50	-0.009620503
255	0x3ba9ccf5	0.0051819035

action_model._continuous_distribution.mu.bias f4 [3]
0	0x3bf154c7	0.0073648426
1	0xba2d8ceb	-0.00066204247
2	0x38bf0725	9.1089205e-05
