Assets/results/AIAgent/ARAgent/ARAgent-2475.pt (torch, 450015 bytes, 36 tensors)

network_body.linear_encoder.seq_layers.0.weight f4 [128, 9]
00000000: 444b 85be c2f6 173e 4a03 583e bd22 983e
00000010: ef3d 1f3f d1e4 623e 154f 50bd d658 88be
00000020: 406f 5f3e 97e1 5f3f 4bae b53e c1ba b4bd
00000030: 2fd7 c5be 1340 a13e c725 9f3e 9465 25be
00000040: 3565 f5be f41c de3e f1e9 24be 5ea8 dd3c
00000050: 4a8e c2be df7e 5cbe 4b6a 163f ec31 22bf
00000060: a684 aabc d886 30bd 0c1c 8dbb 293b 80be
00000070: 306a a2bd 2d70 e9be 44ed 3fbf 0deb febd
00000080: eeb0 dc3e 21ca 00be 3f74 79be 8ad8 4fbe
00000090: 968e 173c 5655 81be 613d 49be 7248 713c
000000a0: d3d6 413d 53d1 263e 593f ddbe 27ea 3cbd
000000b0: e6ca 6f3e 0ba6 9bbe 99bc 86bb ac8d b83d
000000c0: a948 bfbe f5f5 bd3d 1ab1 7abe 2c3a e03b
000000d0: d429 293f b5b0 f7bd 9bb1 a9be cd68 773c
000000e0: d8ed 90be 3da3 10be af4d a8be d2a3 c63e
000000f0: 23a6 1c3e 53ae 803e 264e d43e cc4c 34bf
00000100: 51c3 a23c d7ba 0abf 2334 d4be 54dc 1b3f
00000110: bd9f 03be 1a7b 173e 2de8 5cbe defc b73d
00000120: ced9 813e f084 183c ecf2 073e 38de 7b3e
00000130: f705 ac3e cdb4 febb 6fa8 583d 1444 103f
00000140: 6768 a2bd a4f7 94be 59ed f6bd a4ea 98bd
00000150: 860a f53d 9a2c c6bd 7b78 14be 92fa ec3e
00000160: 19e2 993e 1dab 86be fcea 50bf 9394 b8ba
00000170: f5e6 64be ed84 d03e ddf2 57bd 2af1 ee3d
00000180: 1226 e63d a2a2 b23e 6779 503e 3429 d43d
00000190: a7a3 dcbd 5dd9 873e 86f5 e53d 9482 dabc
000001a0: 7d05 ba3d d26f 42be 0bd0 a33d 1f6b 3fbe
000001b0: 2ab1 c6be a832 993f 9280 38be d77b d4be
000001c0: 63f6 3fbe 2875 ffbd 7fb7 edbe 27ce c3be
000001d0: 114a f13d f9b4 31be c3de b93e 8ca4 dfbc
000001e0: 27af 07bd b61e 123f 2b7a 13bf 8150 433f
000001f0: 4f14 96be fe85 0c3f 6050 34be 3b0a 41be
00000200: ac50 b6be 447d 933e 0621 38be bdb8 8cbd
00000210: 551a 8bbd b20b 0fbe 3ddf 563e 9c70 c6bb
00000220: 9831 d43c 2ccf c53e 201f 81bb 59a5 443f
00000230: a489 9fbd 8b85 0cbf 24d0 063e 98f5 e7bd
00000240: b361 8b3d 1f4d df3c 08d5 963e f0b0 ec3e
00000250: 9f79 183f 8c81 35be 211a 7bbf 3bc8 773e
00000260: 61aa bb3c 1bb9 b8bc 6b46 8c3d 6739 00be
00000270: 8db6 10bf 0852 3fbe b8c9 00bf 8586 f3bd
00000280: 7672 3ebe a571 7abd 77a5 7cbe 0273 be3e
00000290: 8c45 573d d24f c63e 0c72 84be 2d78 cd3e
000002a0: 1cee 07be ac8f e33d 6927 a93e b70e 193f
000002b0: b45f 833e 877d b83e 6c41 3cbe e7d5 45be
000002c0: 15b1 ed3c 8cb2 803d d902 7bbe 1315 943e
000002d0: 2c2b 7dbe cd8e f33e 4620 1b3d 4d24 3bbe
000002e0: b490 433e c477 163e 0afb f43d 9f7b abbc
000002f0: 7f4b 03be 16c3 a9be c4b7 b93e 9cc7 c4be
00000300: d3c9 953e 0c88 c83e 1b9c 263e 4511 36bf
00000310: 84bf 803e 4176 fcbe e75d 8abe 82c1 03bf
00000320: 3012 b13c af14 76be a39f ee3e f343 523e
00000330: 4b58 0cbe e42a fb3d d906 cabd 71c1 343f
00000340: 1e0a 29be f1cd 223f 2876 23be 89a5 e5be
00000350: 99cf 573e 8cc2 b63e 886c ff3c 90ba 55be
00000360: 6968 0cbf bae7 5bbe dc81 693e 9ba2 b13d
00000370: 65d0 c53e 656e 803e 608b b03d bac2 cc3e
00000380: 91a1 843e 9a9f a7bc 86f6 423f 39dc 923e
00000390: 2a37 853e d3ba d83e 2a3f 7f3e fb25 7dbd
000003a0: 1b15 0e3e 20cd f03c b85f a5bd 7336 60be
000003b0: a3a4 d0be 13e1 d4bc b8e6 6a3d d569 86be
000003c0: 7adb ccbd 0fa4 bfbd 6bf0 f13e 91d2 cd3d
000003d0: 7a77 c93e 4c38 94be e1b8 1a3f c221 12bc
000003e0: 3230 7f3d 2c0d 1e3e 348d fe3d 47e6 343d
000003f0: 4e78 943c fd73 8a3e cb59 cc3e 805d 0abd
-0.26033986 0.14840224 0.21095005 0.29714003 0.6220388 0.22157599 -0.05085667 -0.26630276
0.21819782 0.874536 0.35484537 -0.08824683 -0.38640735 0.31494197 0.3108351 -0.1615203
-0.47928777 0.43381464 -0.16104867 0.027057823 -0.37999183 -0.21532772 0.5875594 -0.63357425
-0.020815205 -0.043097347 -0.004306322 -0.25045136 -0.0793041 -0.45593396 -0.74971414 -0.12447176
0.43103737 -0.12577106 -0.2436075 -0.20297447 0.009250304 -0.2526042 -0.1965232 0.014726745
0.047324013 0.16290788 -0.43212393 -0.046121743 0.23417243 -0.30400118 -0.004111838 0.09011397
-0.37360123 0.09275428 -0.24481621 0.006842872 0.6607945 -0.12094251 -0.33143315 0.01510067
-0.2830646 -0.1412477 -0.32871768 0.3879686 0.15297751 0.25133 0.41465873 -0.7042968
0.019868525 -0.54191345 -0.41446027 0.6088307 -0.12853904 0.14793053 -0.21572943 0.089837775
0.25361484 0.0093090385 0.13276261 0.24596488 0.335983 -0.007773018 0.052895006 0.5635388
-0.079300694 -0.29095185 -0.12056989 -0.07466629 0.11964898 -0.09676476 -0.14499085 0.4628492
0.3005531 -0.26302424 -0.8160856 -0.0014082365 -0.22353728 0.40726414 -0.052721847 0.11667092
0.1123773 0.34889704 0.20358811 0.10359421 -0.10773402 0.26533023 0.112284705 -0.026673593
0.09083078 -0.18987969 0.079986654 -0.18693207 -0.3880704 1.1968584 -0.18017796 -0.41500732
-0.18746333 -0.12473518 -0.4642906 -0.3824322 0.11781705 -0.17354192 0.36302766 -0.027300142
-0.033126023 0.5707811 -0.5760829 0.76294714 -0.2931237 0.54891956 -0.17608786 -0.18851559
-0.35608423 0.28806508 -0.17981347 -0.068711735 -0.06792132 -0.13969305 0.20983596 -0.0060559046
0.025902554 0.38634622 -0.003940478 0.768148 -0.07789925 -0.5489127 0.13165337 -0.1132614
0.06805744 0.027258454 0.29459405 0.46228743 0.5956058 -0.177252 -0.98086745 0.24197476
0.022908391 -0.022549203 0.06849369 -0.12521897 -0.5652855 -0.18683636 -0.503078 -0.11890892
-0.18598351 -0.061143536 -0.24672495 0.3719712 0.05255656 0.38732773 -0.2586826 0.4013075
-0.13274425 0.111113876 0.3303788 0.5978808 0.25658953 0.3603327 -0.18384331 -0.19319879
0.029015103 0.06284055 -0.24512805 0.28922328 -0.247235 0.47569886 0.037872575 -0.18275566
0.19098169 0.14694124 0.119619444 -0.02093297 -0.12821768 -0.3315665 0.36273015 -0.3843354
0.29255542 0.39166296 0.16270487 -0.711201 0.25146115 -0.4930897 -0.27024767 -0.51467144
0.021615118 -0.24031328 0.46606168 0.20533733 -0.13705556 0.1226404 -0.09864587 0.7060767
-0.16507766 0.6359549 -0.15963042 -0.44852856 0.21075286 0.35695302 0.031179681 -0.20871949
-0.5484682 -0.21475115 0.22803444 0.08673593 0.38635555 0.25084224 0.08620334 0.39992315
0.25904515 -0.020461846 0.76157415 0.28683642 0.2601865 0.42330036 0.24926439 -0.0618038
0.13875239 0.029394686 -0.080748975 -0.2189577 -0.40750608 -0.02598623 0.057348937 -0.26252618
-0.10002799 -0.093574636 0.47253737 0.10049928 0.39348966 -0.289492 0.6043835 -0.008919181
0.062301822 0.15434712 0.12429276 0.044164922 0.018123772 0.27041617 0.39912257 -0.033780575

network_body.linear_encoder.seq_layers.0.bias f4 [128]
00000000: 7f51 f23b 6717 18bc f419 acba 0e23 0dbc
00000010: 9763 cdbb 921a 3f3b 6f2b 493b 2374 833b
00000020: f00c 7b3b 0e2b f63a 39ba 813b 6502 953b
00000030: 2cfe 21bc 73d0 1dba ac23 393b e54d 9eb9
00000040: e6af ce3b c57f 103b a931 8bbb 6109 e8bb
00000050: 653a 5cba edbd e93a ac71 92bc 57f7 2ebb
00000060: aa27 26bc d196 133b bbc1 813c 1fc7 233a
00000070: 7c97 e4bb 925d 1e3c 92dd e2ba 0314 dfbb
00000080: e9b7 eb3b 7ac2 f2b9 ae8f 89bc 4f8e dabb
00000090: 9a64 b3bb 3f37 c7b9 489b b5b9 9b56 013c
000000a0: fed2 59ba bb09 623b 7aa6 a33b 9943 48bb
000000b0: 05b3 323a fc4c 4e3c f2fb 0bbc f3f0 ba3b
000000c0: c510 cdb9 9c8a 033b 5cea 3abb f8e1 5bbb
000000d0: a454 90bb ab9e 04bc cb7f 16bb f37c 7c3a
000000e0: 1c8c ecbb f436 d9bb 5f9b ef3b be30 f5bb
000000f0: 1115 b6ba f750 3cbc 1606 4b3a 62bd 6bbb
00000100: 8d85 64ba 866c 6a3c 514d 013b 5064 053a
00000110: 8aa4 503a 988b ca3a b634 c2b9 2fce c43b
00000120: b80a 76ba 3e47 ea3b d94e 27bb 1819 daba
00000130: 9768 063b 7a41 01bc 983c a93b 6400 ce3b
00000140: f45a cabb 5a5e 263b 7772 6d3c d2fe efbb
00000150: 5da8 cbbb 62ab df3a 7959 35bc 4f03 4dbc
00000160: a686 56ba d808 e7bb 6007 a0bb 8e0a ae3b
00000170: 12a4 7d3b 13a7 59bc c3ab 02bb b259 06bc
00000180: 14c9 b1bb 837a 9d3b dbf0 353b 0497 01bc
00000190: 7030 8e3c 3011 3cbc 8867 223a 9de1 33ba
000001a0: 1287 32bb fc41 66bb 8ab3 a33b 008f 76ba
000001b0: 331f 76bb 6634 883a 784f 913b ffc3 0c3a
000001c0: 73ee ecbb 2c9c a2bb 8be7 883b bee4 fcbb
000001d0: 3e24 0abb ff1c bdbb b1a2 43bc 96fd 7bbc
000001e0: 92b5 8fbb cf8f 0cbc 8810 903b e0d7 1c3c
000001f0: 56a4 023b e4c1 003b 7d95 093b 3fc3 713b
0.007394969 -0.009282923 -0.0013130293 -0.008614315 -0.0062679756 0.0029160124 0.0030696054 0.0040116473
0.0038307272 0.0018781142 0.003958967 0.0045474046 -0.009887259 -0.0006020136 0.0028250022 -0.00030194144
0.00630759 0.0022048813 -0.0042478633 -0.007081196 -0.00084010354 0.0017833092 -0.017876469 -0.002669772
-0.010141293 0.0022520314 0.015839448 0.0006247628 -0.006976066 0.009665864 -0.0017308465 -0.0068078055
0.0071935547 -0.00046302733 -0.016792145 -0.0066697965 -0.005474639 -0.000379974 -0.00034638704 0.0078941835
-0.00083093334 0.0034490663 0.004994211 -0.003055787 0.0006816837 0.012591597 -0.008543955 0.005704993
-0.0003911314 0.0020071631 -0.0028521037 -0.0033551436 -0.004404621 -0.00809447 -0.0022964354 0.0009631656
-0.007218851 -0.0066288654 0.007312223 -0.007482617 -0.0013891776 -0.011493913 0.00077447423 -0.0035971035
-0.00087174104 0.014308101 0.0019729922 0.0005088495 0.00079590885 0.0015452979 -0.00037041836 0.0060060243
-0.00093857525 0.007149606 -0.0025529175 -0.0016639559 0.0020509118 -0.007889146 0.005164694 0.0062866677
-0.0061753932 0.0025385828 0.014492623 -0.007324078 -0.006215139 0.0017064626 -0.011068695 -0.012512996
-0.00081835163 -0.007050615 -0.0048836917 0.005311317 0.003870253 -0.0132844625 -0.0019938804 -0.008200096
-0.0054255817 0.0048058643 0.002776197 -0.00790954 0.017357081 -0.011478707 0.0006195237 -0.0006861927
-0.0027241153 -0.0035134545 0.004995768 -0.0009405464 -0.0037555217 0.0010391593 0.0044345222 0.0005369782
-0.007230574 -0.004962465 0.0041779927 -0.007717698 -0.002107873 -0.005771279 -0.011940644 -0.015380284
-0.0043856585 -0.0085792085 0.004396502 0.009572953 0.0019934378 0.0019646818 0.0020993643 0.0036890057

network_body.linear_encoder.seq_layers.2.weight f4 [128, 128]
00000000: 704f 81bc 345e 55bc 8a31 89bd 5cc6 efbd
00000010: d424 3ebd 135d c53d 8b12 493c 4642 063d
00000020: f170 dd3c 29a0 a73d eac5 c6bd 3f1a bebd
00000030: 5f16 a1bd 6f9e ecbb 731e f8bb 642d 2c3d
00000040: 036d 2dbe c7e2 893d e0a3 033b 950d 50be
00000050: 2429 76bd 31e0 a3bd dc32 b53d 0ebf 7f3d
00000060: 56dc fc3c 4aa1 dfbb 25fc 023e 9863 c4bd
00000070: 2d70 c03c 5e9b bbbd 25cb 1abd 98de 033e
00000080: 4450 1e3e bea6 fbbc 8a8f c73d 55ef ec3d
00000090: b44e acbc 9e43 83b9 d97b 5e3d 30a2 e6bc
000000a0: 8281 63bc c17f c6bd 8925 17be 779a 093e
000000b0: 88e2 8e3d 22d4 aabc 9ddb bdbc 7837 7e3e
000000c0: bd4f 4dbd 4b82 303c 287e 943d d397 d13d
000000d0: 7aef 353e e984 20bd ee30 bcbc 228d 983c
000000e0: fca0 8bbd 9cf8 d03d 37f2 59bd 22df 09bb
000000f0: 9cc8 b43d 6633 403d ec8e 32bc 8ce1 68bd
00000100: 9ec1 85bd 8463 92bd fbfa 223d 8dac 383d
00000110: 5b9f 873d e6ba 96bd f9c2 ccbd ef10 193d
00000120: 6d8a 9b3c 9ab3 223e 41c3 9b3d 699c cf3c
00000130: 6a99 413c e03d 9fbd 898e e6bb 8f64 88bd
00000140: a9af 1e3d 0c2c bd3c af2d dd3d 7777 e23d
00000150: 3144 86bc 81b8 83bd 5eb1 27be 8a89 933d
00000160: 61d2 093e 0ac6 ec3d 2ad5 2a3e 4ad9 01be
00000170: da1b 91bd 819c 713d c2f1 79bd 46ff dabc
00000180: 97a7 123e 4010 e0bd 021f 03be 0116 303d
00000190: 80a9 bbbd 7983 07bd 226d f5bc cc1e d2bc
000001a0: 5b5b 58bd 3250 bd3c 4769 dfbb fcf8 d83d
000001b0: e03a aabd 6878 9e3c a3fc 853d 9dfa 993d
000001c0: 796e 16be d54f d23d 2f9e 01bd 169b c8bd
000001d0: 8a27 a4bd 9f91 7f3d 7c79 b03d 236b 02be
000001e0: 0a27 fcbc 8190 603c d463 4d3d 7b48 663d
000001f0: 2ab1 383d 622e 0bbd c8e4 0e3d 4cb5 6fbc
00000200: 3e45 833d 4044 21bd 459f 883e 02c1 683d
00000210: 509c 43bd cb90 c4bd 9e67 2d3c 6bec 0abe
00000220: b3f8 3c3e 230a 9d3d 0928 c4bd d1ee 61bb
00000230: 6642 58bd a803 833b 61b4 ab3d cde0 47bd
00000240: c0a7 b8bd adf0 953d ba40 02bd 19bb 7e3c
00000250: e077 eb3d 541f 2dbb 8183 6fbb 1314 a03c
00000260: 66e2 80be f566 823d 3d73 07bd 9642 0e3d
00000270: 746f 093d e4c5 80be b625 0bbc a18f a9bc
00000280: 7f3b f13b 4917 ac3c afe1 093d 388b 333e
00000290: c6c6 373e 0520 a5bd 7374 343e 4468 193e
000002a0: b55a c0bc 5067 3a3e 329d 323d b5c0 8abc
000002b0: a4bc cabb 91f8 07be f7a7 00be 08a4 263d
000002c0: 4b0f 31be 8feb 3c3c 4e87 01bd ea03 38bb
000002d0: a3f9 14bd 04da 20bd 5904 3dbe a04b e63c
000002e0: 72e9 aa3d 97ad 04be 5eaf e63d 3e4b 9f3d
000002f0: 367f 783c 6334 85bd cfdf 41bc f8f2 c43d
00000300: 0a43 10be a26f a9bc a885 bd3d a343 9a3a
00000310: c0d8 92bd 8034 323d 054c b13d a4c9 a43d
00000320: 7559 043d 55ee 503d 7d94 a6bd a58b 483d
00000330: cbf6 9d3d ae5f 9b3d 7c57 103e 1de2 eb3d
00000340: c0a6 6f3d aca9 b33d a233 d1bd 72cf c03d
00000350: 7aa9 713d f653 44bd b568 90bd 3f41 4abd
00000360: 7310 833d ae6b 30be 3100 f63b 6832 4c3d
00000370: 8366 0abd bb48 80bc 968e 893d 5f2e c93d
00000380: f42a d0bb d175 363c 1e08 3e3e 9fb9 0abe
00000390: 1095 ebbd 4db3 cebd 59ce 763c fae2 d33d
000003a0: dbc0 9dbd ab91 c63d a412 193d a015 71be
000003b0: b79b b5bc fda4 09be abae 293d eff2 27bd
000003c0: be96 2ebe 02a1 acbd c0ab f33d 9855 39bc
000003d0: 6050 ab3d b63d c6bb f7b0 23bd 60c7 853d
000003e0: 0b84 d1bd 8bea a8bd 7ba2 ec3d 879d bdbc
000003f0: 245e c33d 0273 563d 922f 973c 33ff 2e3b
-0.015784949 -0.013022948 -0.06698902 -0.11707756 -0.04642184 0.09636893 0.012272487 0.032778047
0.027031394 0.08184845 -0.09705718 -0.0928235 -0.07865595 -0.007221035 -0.007571989 0.042035475
-0.16936116 0.067327075 0.002008669 -0.20317681 -0.06009783 -0.080017455 0.08847591 0.062438063
0.030866783 -0.006824647 0.12791498 -0.095893085 0.02349099 -0.09160493 -0.03779139 0.12877882
0.15460306 -0.030719157 0.09744175 0.115690865 -0.021033622 -0.00025036646 0.05431733 -0.028153509
-0.013885858 -0.09692336 -0.14760412 0.1343783 0.06976801 -0.020853106 -0.023176009 0.24825847
-0.050124872 0.010773252 0.07250625 0.10234036 0.17767134 -0.039189253 -0.02297255 0.018621985
-0.06817815 0.102036685 -0.05320951 -0.0021037539 0.08827326 0.046924017 -0.010898333 -0.056855723
-0.0653107 -0.07147887 0.039790135 0.045086432 0.066221915 -0.07359867 -0.099981256 0.037369665
0.018986905 0.15888825 0.07605601 0.025343137 0.011816362 -0.077754736 -0.0070360345 -0.06659805
0.03874174 0.023092292 0.10799729 0.11057942 -0.016389938 -0.06431676 -0.16376254 0.07203968
0.1345916 0.115612105 0.16682878 -0.12680545 -0.070853904 0.058987144 -0.061021574 -0.026733052
0.14321743 -0.109405994 -0.12804797 0.042989735 -0.09163189 -0.033084366 -0.029959265 -0.02564945
-0.0528215 0.02310953 -0.00681797 0.10594365 -0.08312011 0.019344524 0.06542327 0.07518504
-0.1469058 0.10269133 -0.031644996 -0.09795205 -0.08015354 0.062394734 0.08616921 -0.12736182
-0.030780334 0.013706327 0.05014403 0.056221467 0.04509083 -0.03397978 0.03488615 -0.014630627
0.06409691 -0.03937173 0.26684013 0.05682469 -0.047756493 -0.095979296 0.010583786 -0.13566749
0.18454246 0.07667949 -0.095779486 -0.003447462 -0.052797697 0.0039982386 0.08384014 -0.04879837
-0.09016371 0.07321296 -0.03180001 0.015547537 0.11497474 -0.0026416378 -0.0036546888 0.019540822
-0.25172728 0.06367294 -0.033068884 0.03473147 0.033553556 -0.2515098 -0.008492878 -0.02069837
0.007361829 0.021007197 0.033662494 0.17533576 0.1794692 -0.08062748 0.17622547 0.1498118
-0.023480752 0.18203473 0.043606944 -0.016937593 -0.0061870385 -0.13278414 -0.12564074 0.040683776
-0.1729099 0.011530771 -0.031623177 -0.0028078505 -0.036370885 -0.039270416 -0.1845869 0.028112233
0.083453074 -0.12956844 0.112639174 0.07778023 0.015167048 -0.065041326 -0.011833145 0.09616655
-0.14088073 -0.020683113 0.092540085 0.0011769425 -0.07170248 0.0435071 0.08657078 0.080462724
0.032311875 0.05100854 -0.08133791 0.0489613 0.07713088 0.07586609 0.14095873 0.11517737
0.058508635 0.08772597 -0.10214926 0.09414567 0.058999516 -0.047931634 -0.07051221 -0.04937863
0.06399622 -0.17228577 0.007507347 0.04985276 -0.03378917 -0.01565968 0.06716649 0.09823298
-0.0063527767 0.011136488 0.18557784 -0.13547371 -0.11503041 -0.10092793 0.015063846 0.10346027
-0.077028 0.09695753 0.037371293 -0.23543406 -0.022168977 -0.13441844 0.041426342 -0.041003164
-0.17049691 -0.08429147 0.11897993 -0.011311911 0.0836494 -0.006049837 -0.03996369 0.065321684
-0.10230263 -0.082478605 0.11554428 -0.023146404 0.0953944 0.052355774 0.0184553 0.0026702404

network_body.linear_encoder.seq_layers.2.bias f4 [128]
00000000: 8223 adbb 4a96 933b eed8 ee3a c145 6cbb
00000010: 0bf8 46bb eda7 da3b 1b67 71ba 141f 8a3b
00000020: 9f8d c1bb 7aaf 5c3a 1041 b9bb 1aa2 b33a
00000030: b8a8 383b 9708 8d3b 6347 0fba 903f 913b
00000040: 2dd2 58bb b56c 913b a467 85bb 8362 29bb
00000050: b2a5 d5b9 49a3 b83b b7f5 013c 4cb1 1d3b
00000060: b0a7 45bb 4c3c 14bc 3c0a 5dbb 6ef4 b13b
00000070: 3311 9b3b c824 b8bb ce4e 26bb bb0d 16bc
00000080: d4ec b9bb 508c 9e3b a7fd e0ba c2ee 34bc
00000090: 673e ac3a 561f 94bb 8c7c d7bb ca2d 6c3b
000000a0: 703d a2bb 693f 0cba 23b3 1f3c 7646 c83b
000000b0: 751d c7ba 58c2 333b 999f e6b9 be93 6a3b
000000c0: 2b2d 85bb 2c77 573b a2e4 503b ed62 f93b
000000d0: 9f6e f539 c696 3cbb 9ff5 2a3b b2b3 583a
000000e0: bd76 a2bb 7903 d5bb 2652 93ba 372b 853b
000000f0: 26c6 a53a 97a6 9fba 9bfc bdbb ca1e 813b
00000100: f488 3b3a 446f e33b 04bb b5bb d525 de3b
00000110: 38d3 063c abd2 4bbb 2138 b4ba bb99 7cba
00000120: 2d7b 84bb 280d de3b fcb1 68ba b139 aeba
00000130: 4023 edbb 2f59 1fbc 38e0 4c3a e031 363a
00000140: 1670 31bb bf71 dabb dcbd 4dbb a109 033b
00000150: 9b2b 063a c0cb 183b e3c5 6bba f826 03bc
00000160: 577f 95bb 3684 83bb 13bd e83b 3376 84ba
00000170: 44b3 4b3b 9951 3dbb 7a48 213b 7356 e1ba
00000180: 72dc 603b 8320 aa3b 4f9c d1bb 2fe3 e8bb
00000190: b395 c1bb 7a17 52bb ca47 fbb8 6620 acbb
000001a0: 0e30 e6b9 9216 2bbc f0bc dd3b 0c2e d3bb
000001b0: bc35 be3b 9736 063c fdb5 d0bb ae5b 11bb
000001c0: 8096 023c 3d09 8d3b 7a10 f238 e469 e5bb
000001d0: e347 803c 75e1 b03a 80d7 e7bb a078 ed3a
000001e0: 61b7 5dbb cd9c 02bc 5529 b5bb fa06 7a3b
000001f0: 6184 dbbb 9191 f8ba c11c 8d3b c2f3 8e3b
-0.005283774 0.004504 0.0018222609 -0.0036052319 -0.0030360247 0.0066728503 -0.00092087843 0.0042151306
-0.005906775 0.0008418482 -0.005653508 0.0013704926 0.0028176736 0.0043040025 -0.00054656545 0.004432626
-0.003308426 0.0044380077 -0.004071193 -0.002584607 -0.00040749979 0.0056346995 0.007932118 0.0024061976
-0.0030159764 -0.009047579 -0.0033728024 0.0054307496 0.004732275 -0.005619619 -0.002537656 -0.009158547
-0.005673984 0.004838504 -0.0017165438 -0.011043252 0.0013141156 -0.004520337 -0.0065761264 0.0036038035
-0.0049511716 -0.0005350025 0.009747299 0.006111915 -0.0015191274 0.002742907 -0.00043987928 0.0035793628
-0.0040642223 0.0032877428 0.0031874557 0.00761067 0.0004681246 -0.0028776391 0.0026086343 0.0008266523
-0.0049580024 -0.006500658 -0.0011239692 0.0040639895 0.0012647554 -0.0012180385 -0.005797935 0.003940438
0.00071538915 0.006940754 -0.0055459756 0.0067794123 0.008229069 -0.003110091 -0.0013749638 -0.0009635945
-0.004043004 0.0067764707 -0.00088766194 -0.001329234 -0.007236868 -0.009725853 0.00078153936 0.0006950181
-0.0027074865 -0.0066663916 -0.0031393683 0.0019994753 0.0005118192 0.0023314804 -0.0008994026 -0.008004896
-0.0045622992 -0.0040135635 0.0071026175 -0.0010106027 0.0031082192 -0.0028887747 0.002460985 -0.0017191902
0.0034311083 0.005191864 -0.0063968073 -0.0071071605 -0.005907738 -0.003205745 -0.000119819844 -0.0052528856
-0.00043904822 -0.010442393 0.006766908 -0.006444698 0.0058047455 0.008191726 -0.006369351 -0.002217989
0.007970452 0.00430408 0.00011542528 -0.0070011485 0.015659278 0.0013494926 -0.00707525 0.0018117614
-0.0033831226 -0.0079719545 -0.005528609 0.003815113 -0.0066991304 -0.0018964281 0.0043064062 0.0043625543

action_model._continuous_distribution.log_sigma f4 [1, 3]
00000000: e35a d2bb ef20 80bc e0f5 a3bc
-0.006419526 -0.015640704 -0.020014703

action_model._continuous_distribution.mu.weight f4 [3, 128]
00000000: 17a9 16bd 7410 db3c 6c85 4b3c c674 7cbc
00000010: 00ac 373c d915 ba3c 086a 7d3c a031 633c
00000020: 15e3 b8bc 143e c7bc b460 d7bb dfbc b63c
00000030: ec6f b03c 4d9d f53c c522 b13b 8ee5 18bd
00000040: 1138 2abc df0b 133d fc7b 12bc f2c9 17bc
00000050: 6cd4 03bd 6c59 2b3d 3104 233d 86e0 8c3c
00000060: 1040 1abc 78c6 b8bc bb42 2abc b377 b63c
00000070: 5f9a 1b3d efa8 0bba 532e ebbb e765 99bc
00000080: 4166 8bbb 99a1 b0bc f001 26bc 8b8c 46bc
00000090: 629f 753c 61d0 f7bb 881d ecbb 8f16 b83c
000000a0: 053e 843a 9379 66ba 3e84 283d 1e1e b73c
000000b0: 04d4 9dbc 9e57 bb3c 3c18 193c bbf6 a03c
000000c0: 2c7e 8bbc 72ce d43b af14 60bc 26b8 1f3d
000000d0: ba02 b9bc aa16 40bc b17c aa3c 6add 353c
000000e0: c9cd a3bc 0ca1 07bd 32c0 29bb b1e4 ba3c
000000f0: 972e b3bc fa6e f13a 023d 77bc a33b ec3c
00000100: f690 963c 56c7 d03c 2a98 b2bb b320 b6ba
00000110: dfd5 113d 0aef 50bb b5bd 053c 039d 60bc
00000120: daee 9abc 2a25 b8bc 9d81 393c a72b 27bc
00000130: 42c2 e6bc 62dd f3ba 7d69 873c a1ce b0bc
00000140: 1765 dfbc afeb cbbb d13d 133c 1535 23bd
00000150: 69a3 6c3c 842d 933c 9ea7 eabc 4835 22bc
00000160: e2af 0dbc 7629 e23b fe19 fc3b 53e5 f93b
00000170: f602 dd3c 9a52 8e3b 49c3 093d 26ee 55bb
00000180: 2d0a 23bd 22be af3c 207d b43a 5ee6 84bc
00000190: b3c2 11bd 5b66 883a 0ef0 6c3c 5342 b3bb
000001a0: 58ca d6bc d38c 343c cab4 e63a 8717 b3bb
000001b0: ddcf df3c 6678 813d 0e88 a7bc 99bb 82bc
000001c0: 72bb dc3c c8b0 233c 38a8 543c 805f 9bbc
000001d0: 3927 c93b 3d19 fb3b 5159 2ebc aa5f a23c
000001e0: 2563 17bb 7fcc 01bd c4d4 c2bc 324c 0e3d
000001f0: 761f 4bbc 5002 11bd 47a4 fc3c d46b 093d
00000200: 035d c8bb 608c a1bb f382 18bc 5563 c1bb
00000210: ab95 9d3b a726 afbb 1e79 d0bc cf1d 123c
00000220: ecc0 79bc cd08 31bd 44a2 053c 53bc 8f3b
00000230: 12e2 c4bb ed6b ef3c ee63 c5bc 3c5a a5bc
00000240: ea0a 30bc a55e 1b3b dae0 993c 1235 3a3c
00000250: ab50 943c baf4 cabb 0d8f c7bb 5a52 97bc
00000260: 1ead 843b 8b4a c8bc 40ef c63c a916 edb8
00000270: 0661 893c 99c6 6b3a 6c79 ff3c 67a9 623c
00000280: 67c8 88bc 9664 90bb ce87 c23c 9cea ebbb
00000290: 5646 45bd 1e6b f9bb 9ad7 d93b f19d 13bc
000002a0: 3b84 edbc d4ed b539 a0d2 b3bb 4223 bcbc
000002b0: 1bf7 0c3c 24ee 2cba 9cc9 8fbb 305a b8bc
000002c0: f117 cebc 5838 9abc 8b76 363c 79dd 18bc
000002d0: 81bb bfbc 9d90 fb3c b6f9 5c3c 0744 8c3c
000002e0: 2a4c 343c 659d b1bc 5000 3cbd 105f a9bc
000002f0: 434f 893c a9f0 b5bc 7f60 b1bb 6e0a be3b
00000300: 1b5c 6bbc c29d f2bc 37a9 c1ba 0f22 f43c
00000310: 567e 26bc 0d88 edbb 8cee 803a 0bfa 063d
00000320: c229 90bb 4995 d7bc b37d bdbb e63c e8bb
00000330: 4f42 943c 276c 5ebb 3f50 4ebc 29b8 5f39
00000340: 5438 053d a9ce 2a3c 47b6 9b3c c0c1 b63c
00000350: f687 33bb cf04 513c c016 67bd 05b4 4c39
00000360: 2d02 fdbb 533c d43c 7f78 0ebc 5453 b93b
00000370: 1e7c 81bb 0a35 0fbc b87a 30bc 5fc9 903c
00000380: 9eac 933a cbb3 a33b b6ff 563c 4a14 b63c
00000390: f257 e939 efe6 9bbc 5b84 133c 91ce cfbc
000003a0: b48a f83c ddb8 27ba e3fd 95bb 7921 17bd
000003b0: efda 12bc f601 a23c b42e d03c 26ab 3fbc
000003c0: 63d5 aabc 4618 c339 0fe0 97bb a75e 083d
000003d0: ce5a da3c 7b70 f6bc fcd3 46bc 3c05 9ebc
000003e0: ba9e 04bd f588 8bbc f0f5 d83b d0e8 013b
000003f0: 6a6c 0bbd c134 babb 509f 1dbc f5cc a93b
-0.03678235 0.026741244 0.012421947 -0.0154087 0.011210442 0.022715496 0.015467174 0.013866812
-0.022569219 -0.024321593 -0.006572807 0.022306858 0.021537744 0.029982233 0.005405756 -0.037328295
-0.010389344 0.035899993 -0.008940693 -0.009264456 -0.032185003 0.041833326 0.03979892 0.017196905
-0.009414688 -0.022555575 -0.010391886 0.022273874 0.037989017 -0.0005327602 -0.007177153 -0.018725349
-0.004254133 -0.02156143 -0.010132298 -0.012118469 0.014991613 -0.0075626825 -0.007205669 0.022471694
0.0010089284 -0.00087919197 0.04114174 0.022353228 -0.019266136 0.022868928 0.009344157 0.0196489
-0.017027937 0.0064943368 -0.013676806 0.038993977 -0.022584308 -0.0117241535 0.02081141 0.0111001525
-0.019995587 -0.03311257 -0.002590191 0.022814127 -0.021872802 0.0018419914 -0.015090229 0.02883703
0.01837967 0.025485676 -0.0054502683 -0.0013895243 0.035604354 -0.003188076 0.008162905 -0.0137093095
-0.018912721 -0.022478659 0.011322406 -0.010203279 -0.028168801 -0.0018605406 0.016529793 -0.021582903
-0.027269883 -0.006223164 0.008986906 -0.039845545 0.014443257 0.01796604 -0.02864438 -0.009900399
-0.008647891 0.006901915 0.007693528 0.0076262145 0.026978951 0.004343343 0.033633504 -0.0032643168
-0.039804626 0.021452967 0.00137702 -0.016223129 -0.03558607 0.0010406481 0.01446153 -0.005470553
-0.026219532 0.011019903 0.0017601487 -0.005465451 0.027320797 0.06321792 -0.020450618 -0.015958594
0.02694485 0.009990878 0.01297956 -0.018966436 0.006138709 0.0076629207 -0.010641412 0.019821007
-0.0023099866 -0.031689163 -0.023783095 0.034740634 -0.012397638 -0.035402596 0.030840052 0.0335501
-0.0061146035 -0.004930064 -0.0093085645 -0.005901734 0.0048091016 -0.005345184 -0.025448378 0.00891824
-0.01524375 -0.043221284 0.008156363 0.0043864637 -0.006008395 0.029226268 -0.024095502 -0.020184629
-0.01074479 0.0023707536 0.018783975 0.011365192 0.018104872 -0.0061937245 -0.006090051 -0.018471885
0.0040489575 -0.024449607 0.024284005 -0.000113052614 0.016769897 0.0008994132 0.031185828 0.013834334
-0.016697122 -0.004406522 0.023746397 -0.0071995985 -0.04816278 -0.0076116463 0.006648016 -0.009009824
-0.028993716 0.00034700206 -0.005487755 -0.022966031 0.008603836 -0.0006596765 -0.0043880474 -0.022503942
-0.0251579 -0.018825695 0.011136661 -0.009330147 -0.023404839 0.030708605 0.01348727 0.017122282
0.011004487 -0.021681497 -0.045898736 -0.020675212 0.016761428 -0.022209482 -0.0054131146 0.005799583
-0.014365221 -0.02961624 -0.0014775161 0.029801397 -0.010161957 -0.0072488845 0.0009836718 0.032953303
-0.004399509 -0.026316302 -0.005782807 -0.007087338 0.018098025 -0.0033938976 -0.012592374 0.00021335542
0.03252442 0.010425248 0.019007815 0.022309184 -0.0027394271 0.012757494 -0.05641818 0.00019522019
-0.0077212066 0.025907671 -0.008695721 0.0056556854 -0.0039515635 -0.008740673 -0.010771446 0.017674146
0.0011266654 0.004995798 0.01312249 0.022226471 0.00044506748 -0.019031016 0.009003724 -0.025367053
0.030339576 -0.0006398091 -0.004577385 -0.036897156 -0.008963331 0.019776326 0.025412895 -0.01169852
-0.020853704 0.00037211383 -0.004634864 0.033293393 0.026654627 -0.030082932 -0.012135502 -0.019289605
-0.032377936 -0.01703308 0.006621115 0.0019822605 -0.03403894 -0.0056825583 -0.009620503 0.0051819035

action_model._continuous_distribution.mu.bias f4 [3]
00000000: c754 f13b eb8c 2dba 2507 bf38
0.0073648426 -0.00066204247 9.1089205e-05

exp_avg f4 [128, 9]
00000000: 2d86 6a37 28dd a538 4c86 be37 d263 a0b8
00000010: 97e8 94b7 58cf 8bb8 e0cb 95b7 9987 64b8
00000020: 74f3 dd36 4cd9 de38 509b 1d3a 290a 3539
00000030: 95ef 13ba 4bdb adb8 4219 f2b9 c3c1 bc38
00000040: a84e 7237 ea61 9839 0c85 cd38 d659 113a
00000050: 36f6 2639 e894 0aba f423 9938 6b83 03ba
00000060: ab59 38b9 6f18 4ab9 9dc7 49ba e809 62b8
00000070: dbdc 9fb9 92a1 b7b8 8c99 a039 821d 0638
00000080: 7e79 9039 1ed3 1938 b1b0 8039 021b f735
00000090: 43f7 9cb6 1206 deb7 ce08 ffb6 9a48 cc37
000000a0: 739d eb36 b30f d237 198f de37 c137 3438
000000b0: ab79 88b8 475b 58b8 c903 99b9 edc3 afb8
000000c0: 0a49 1f39 683a 4d39 8627 d437 72ad 10ba
000000d0: f0cb c9b9 d83f f3ba 133a 6c38 7311 a739
000000e0: 70e8 bf38 ee47 99b9 d63c 9ab6 517a 81b9
000000f0: 5921 f337 6fab 4638 a83e 3f38 f7d4 96b7
00000100: 0559 d5b8 a211 f5b7 66a3 da38 4fd6 91b7
00000110: e84b 8638 bc97 cf37 b195 07b9 d617 133a
00000120: 36e1 7637 2d9a ae38 ec8f c837 a3a4 6fb8
00000130: 4c4b 87b7 24c1 28b8 9bb2 04b8 3b4b 9537
00000140: 5ebc 5439 3dbe 6f38 0e8e a939 afc3 c238
00000150: 99f9 a6b9 8007 9038 5577 9ab9 c665 95b8
00000160: b146 8fb7 f8c8 63ba b03d f2b5 5052 2bb7
00000170: 33cb 44b6 5a76 2537 7837 1136 0d7a 9d36
00000180: a054 b4b5 1947 8ab7 d0ac f935 567b dd36
00000190: d2a3 1c38 deed 3337 9f7b 2db8 7c71 c135
000001a0: 4f8c 15b8 a7ba 48b8 0130 99b7 4d61 9db8
000001b0: 92c3 be38 49ea 063a 74f9 1a39 3712 09ba
000001c0: 58e8 89b8 d296 f4b9 794f 1a36 2ff5 b2b9
000001d0: 7e8b 7fb7 68cc 62b8 5d66 a0b9 823f b8b8
000001e0: 9a65 8039 ba97 ba38 589d 0239 a462 9bb9
000001f0: 8df6 eab9 eb4c 06ba 820e e6b5 50b4 22b7
00000200: 37e5 3ab6 812c 1037 db11 2535 4b01 ff36
00000210: 378c 1136 ae34 5136 343b 51b5 3ee9 b0b8
00000220: 5e3c fab9 73b8 0fb9 d66c f239 898c 96b8
00000230: 3b0a da39 6f60 7239 db2c 7437 d7ba 5e3a
00000240: cba3 9ab8 d5bb dab9 4e41 fbb8 13db d139
00000250: 7f88 1cb8 cf44 ba39 84f6 1439 0b39 5138
00000260: eaea fe39 9f3d b3b8 ee87 fdb9 ef9c 11b9
00000270: 0bed db39 ddba 4b39 f3df 8939 f756 beb9
00000280: bdf7 74b9 1b9f a9ba 551c 1637 ce53 5438
00000290: 7ae5 7337 0058 41b8 f4f4 18b6 515a 14b8
000002a0: 76e2 f136 8049 6937 c3b2 ebb7 6d7a a337
000002b0: 4c3c e738 cbce 0438 60ea 92b8 4dd1 5db8
000002c0: 31dd 4fb8 e2ee 6a39 b38d ba38 9986 503a
000002d0: b7fd ff38 cb0b 353a d0f6 4f39 afdb 2dba
000002e0: 875a 45b8 2717 18ba c432 0a39 5b92 3ab9
000002f0: 2a0d 1a37 a82f 9838 5543 d739 b544 f738
00000300: a375 cdb9 98bd fd37 35a1 aab9 4a42 1fb9
00000310: 6602 0f39 6de7 cab9 e079 2f37 c134 7838
00000320: 038e 8e37 298a 67b8 c8f4 6b36 b2e2 4ab8
00000330: d3ff 78b7 91b1 e936 10bd 92b8 9b57 8c37
00000340: 9482 c638 5006 e437 1657 c6b8 f4cb 4637
00000350: 5e75 c7b8 c573 20b8 a364 8cb8 522f 12b9
00000360: 33e1 b4b6 64d9 ffb7 c8f1 12b7 a667 fb37
00000370: 378e 8a35 ba04 c837 8801 9636 9ed5 3d37
00000380: d8d6 7eb6 a8d1 8838 d186 c139 da4c de38
00000390: ebb2 cbb9 4799 b737 2bf6 d8b9 702b f3b8
000003a0: ba98 07ba 7390 83b9 a6cc 9e38 079e e039
000003b0: b901 0139 2e24 e7b9 bce8 91b8 892d d3b9
000003c0: 1e8d 37b8 7497 9bb9 7587 5739 db6e c4b7
000003d0: adec 0ab9 6b94 1fb8 b6c2 0139 5571 1f37
000003e0: 5bd9 dd38 73d7 53b8 857e 13b7 0514 8bb8
000003f0: 48f4 8837 d1b7 c138 0785 de37 1b2c 4eb8
1.3978727e-05 7.909007e-05 2.2712302e-05 -7.6479875e-05 -1.7751283e-05 -6.666657e-05 -1.785712e-05 -5.448572e-05
6.614655e-06 0.000106262596 0.0006012218 0.0001726529 -0.00056433055 -8.290129e-05 -0.00046176655 9.0006295e-05
1.4442638e-05 0.0002906465 9.799944e-05 0.00055446976 0.00015922714 -0.0005286471 7.302305e-05 -0.0005016836
-0.00017581011 -0.00019273323 -0.0007697286 -5.3891825e-05 -0.00030491393 -8.756215e-05 0.0003063198 3.197557e-05
0.0002755634 3.667466e-05 0.00024545708 1.8410794e-06 -4.6779473e-06 -2.6467289e-05 -7.600617e-06 2.4352503e-05
7.0218753e-06 2.5041261e-05 2.6531097e-05 4.296727e-05 -6.507648e-05 -5.158342e-05 -0.00029185254 -8.381144e-05
0.00015190631 0.00019572082 2.5290774e-05 -0.00055190094 -0.00038489653 -0.0018558456 5.632087e-05 0.00031865723
9.1508846e-05 -0.00029236026 -4.59664e-06 -0.0002469593 2.8983386e-05 4.736654e-05 4.55963e-05 -1.7980563e-05
-0.00010173213 -2.9214487e-05 0.000104254854 -1.7385142e-05 6.4037566e-05 2.474698e-05 -0.00012930368 0.0005611157
1.4715179e-05 8.325684e-05 2.3908877e-05 -5.713537e-05 -1.6128317e-05 -4.0234198e-05 -3.163759e-05 1.7797216e-05
0.00020288068 5.7159214e-05 0.0003234003 9.28709e-05 -0.00031847952 6.867852e-05 -0.00029462078 -7.1238304e-05
-1.7079847e-05 -0.00086893095 -1.8048358e-06 -1.0211559e-05 -2.9324553e-06 9.862322e-06 2.163897e-06 4.693173e-06
-1.3435674e-06 -1.648399e-05 1.8602241e-06 6.6006714e-06 3.7345868e-05 1.0724614e-05 -4.1361545e-05 1.4412649e-06
-3.565504e-05 -4.785755e-05 -1.8261375e-05 -7.504467e-05 9.096334e-05 0.00051466055 0.00014779513 -0.00052288495
-6.5759465e-05 -0.00046651677 2.2994047e-06 -0.00034133482 -1.52316625e-05 -5.4072967e-05 -0.00030593845 -8.785633e-05
0.00024489762 8.8974324e-05 0.00012456381 -0.00029637397 -0.00044815653 -0.0005123156 -1.7140558e-06 -9.697935e-06
-2.784958e-06 8.593431e-06 6.1493273e-07 7.5997427e-06 2.16883e-06 3.117409e-06 -7.794472e-07 -8.435779e-05
-0.00047728693 -0.00013706255 0.00046238926 -7.178734e-05 0.00041587822 0.00023114843 1.4553977e-05 0.0008496469
-7.373801e-05 -0.00041720146 -0.000119807766 0.0004002681 -3.732042e-05 0.0003552795 0.00014206214 4.988261e-05
0.0004862168 -8.546863e-05 -0.00048357196 -0.0001388674 0.00041947546 0.000194292 0.0002629753 -0.00036304418
-0.00023361943 -0.0012941094 8.947293e-06 5.0622788e-05 1.4537358e-05 -4.6096742e-05 -2.2792346e-06 -3.5370063e-05
7.208723e-06 1.3904995e-05 -2.8097425e-05 1.9488123e-05 0.000110261695 3.1663843e-05 -7.005478e-05 -5.2885433e-05
-4.9558646e-05 0.0002240497 8.895565e-05 0.0007954627 0.000122066056 0.00069063593 0.00019833003 -0.00066321617
-4.705277e-05 -0.000580179 0.00013179617 -0.00017792864 9.18218e-06 7.2568015e-05 0.00041058162 0.000117906755
-0.00039188293 3.0248237e-05 -0.00032545035 -0.00015188116 0.00013638436 -0.00038700868 1.0459189e-05 5.917694e-05
1.6993848e-05 -5.5203363e-05 3.516021e-06 -4.837168e-05 -1.4841516e-05 6.9646126e-06 -6.997038e-05 1.6730095e-05
9.465698e-05 2.7182658e-05 -9.457597e-05 1.1849206e-05 -9.510921e-05 -3.825479e-05 -6.694465e-05 -0.00013941273
-5.3906347e-06 -3.04996e-05 -8.758572e-06 2.9969797e-05 1.0323191e-06 2.3844059e-05 4.4705266e-06 1.13150145e-05
-3.7974005e-06 6.524037e-05 0.00036912275 0.000106000996 -0.00038852482 2.1886675e-05 -0.0004138214 -0.00011595234
-0.00051725993 -0.0002509389 7.572146e-05 0.0004284235 0.0001230304 -0.0004408671 -6.957489e-05 -0.00040278982
-4.3762026e-05 -0.00029676745 0.0002055446 -2.3416642e-05 -0.00013248874 -3.804678e-05 0.00012374934 9.503526e-06
0.00010578587 -5.0506973e-05 -8.79134e-06 -6.6317654e-05 1.6326216e-05 9.2371956e-05 2.6526408e-05 -4.9155304e-05

exp_avg_sq f4 [128, 9]
00000000: 8642 4e31 d455 ce33 5220 0832 86af b533
00000010: 5707 1231 1f43 7133 4500 bb30 a2cb 9431
00000020: 8288 af32 fbf2 1735 2f01 9837 a390 c835
00000030: c69e 8637 5ea5 4034 1318 2837 8cae 9634
00000040: aa41 0735 2eb4 3536 dc21 ce34 2e35 4e37
00000050: cb0a 8835 b340 3737 8bf8 8434 f1db 0137
00000060: de35 4534 4027 9b34 d051 2037 b2b8 9d33
00000070: 74c7 1d36 332f 5034 2420 1236 05fb 1734
00000080: 57f3 bc35 db28 3133 da30 cf33 1046 0236
00000090: 94cb 9730 bdd9 1733 a55c 4831 6ba4 1d33
000000a0: 96b1 c031 0600 fa32 c3a6 c330 2fd6 6b31
000000b0: 2e7b 9033 63dd 0736 18ea 8738 a855 b336
000000c0: ff0f 7438 d3e6 3636 5084 2838 8008 9435
000000d0: 95e0 e435 56a5 ff37 411f 7d32 ea36 fd34
000000e0: d80d 2733 c521 e834 189b 9233 fdcb 8434
000000f0: 9e69 5532 03e9 d232 fb27 be33 40f8 a633
00000100: d507 2736 2764 5c34 9998 1436 0177 5b33
00000110: 1169 db35 ccf8 1633 234f 8a33 cd23 8d35
00000120: 7c4d 5833 bb61 d835 1dc1 0e34 b05c be35
00000130: 89a1 2933 cfa5 6d35 d751 1333 3bb4 1634
00000140: eacc 3b35 27ce 0434 91da 8436 d04b af34
00000150: c361 6536 b46d 9234 061a 2636 f0a8 0634
00000160: 419b 1334 e655 ca36 efed e130 1003 6233
00000170: 881b 9531 b76b 4933 3344 6d31 a8f9 1133
00000180: ef5b 3f30 eddf 9430 6fbd 0e33 f03e c732
00000190: 9051 4735 497f 8333 c47f 4235 53a1 4534
000001a0: 14cf 1535 a762 a132 80be 3f33 0550 e235
000001b0: 9672 9c34 4281 1c37 c780 4e35 77cb 1137
000001c0: c582 d334 8ac4 c236 6b48 2834 16ad b134
000001d0: fb3f 8e36 162c ff34 f043 7f37 3568 a835
000001e0: 3ca4 5c37 310a 1134 9a87 1537 db5b 7934
000001f0: 1a32 ad34 45c0 a735 840c 192f d31a 9931
00000200: 4b04 ca2f 6969 9c31 4e27 d130 55d9 5031
00000210: 9324 6f2f efee b52f 36d0 2c32 b861 0234
00000220: e96d 8236 e218 ac34 1146 6b36 4e16 5b33
00000230: 8f33 1a36 d44e 9833 2f51 0634 c6b4 d835
00000240: 420b a432 901a 2435 8987 5833 e3f1 1335
00000250: d6d7 0832 0af5 d134 ef90 a732 b764 1533
00000260: c810 0435 583c c535 d14e 4538 ab2b 8236
00000270: 344c 2e38 880b 0836 da06 ef37 ba16 5935
00000280: 5f77 9135 e9e0 d737 ec6a 5b31 667f db33
00000290: 51cf 1032 e1a4 c133 4268 2032 cfee 7333
000002a0: c815 ef30 275d c231 0808 0733 e2b6 9734
000002b0: 15c5 1737 4e41 4835 2119 0937 9906 1835
000002c0: 7d35 b936 80c6 1034 9507 6534 a211 dc35
000002d0: 1ff3 af34 a403 3037 913e 6835 bc10 2837
000002e0: edc8 3635 6413 ee36 a79c 6434 7837 c234
000002f0: 10de ac36 a778 0a34 a485 8a36 78c6 b634
00000300: 4d53 8e36 f7cf 2535 2e96 6136 52ee 0634
00000310: 84e3 8a34 cb89 1b37 ed43 4530 4856 c532
00000320: 9d30 0231 c18e bd32 f3b9 6331 bd0e 6832
00000330: 13fa 4f30 9d81 3731 534b 4133 ea82 2c33
00000340: 2193 ac35 d6b4 e333 92ae a135 a484 9834
00000350: 8c9b 6935 3a50 0a33 6ed8 8f33 9848 1736
00000360: 5906 fc30 f51d 7c33 6b54 a631 7d3f 6333
00000370: fb01 cb30 7992 0e33 25ab 8131 965e ec31
00000380: 60de 6e33 a4cc 0f35 17da 8f37 d5ce bd35
00000390: 87e1 8037 1a56 4b34 574b 3437 d861 9234
000003a0: 1c03 1535 46de be36 33b7 fc33 cbce 7c36
000003b0: 2bc9 a634 5176 6036 3ee7 1333 89f9 1836
000003c0: 76c6 2133 b811 1d34 cd9a 3834 d608 8a32
000003d0: b615 0a35 d332 3633 5067 ec34 7b6f ef32
000003e0: 0383 9834 b4fb 2b32 399c 9c32 97ca c633
000003f0: 9338 1b35 2247 9b37 38e2 cc35 939d 8a37
3.001476e-09 9.6082346e-08 7.923591e-09 8.460397e-08 2.1249968e-09 5.617323e-08 1.3606117e-09 4.3305173e-09
2.0434758e-08 5.6605467e-07 1.8120363e-05 1.4943256e-06 1.604798e-05 1.7941554e-07 1.00191855e-05 2.8066677e-07
5.038697e-07 2.707598e-06 3.8395126e-07 1.2290939e-05 1.0135931e-06 1.0922714e-05 2.4767755e-07 7.740208e-06
1.8366651e-07 2.8899558e-07 9.555792e-06 7.344478e-08 2.351092e-06 1.938868e-07 2.1774404e-06 1.4154291e-07
1.4077913e-06 4.124818e-08 9.648075e-08 1.9412291e-06 1.1044556e-09 3.535546e-08 2.9156493e-09 3.670395e-08
5.6081246e-09 2.9103841e-08 1.4235514e-09 3.431875e-09 6.727929e-08 2.0245432e-06 6.480905e-05 5.3445874e-06
5.818903e-05 2.725447e-06 4.0177547e-05 1.1029333e-06 1.7052686e-06 3.047536e-05 1.47336445e-08 4.7164878e-07
3.889531e-08 4.3237938e-07 6.826866e-08 2.4735337e-07 1.2422246e-08 2.4553179e-08 8.854837e-08 7.775134e-08
2.4889498e-06 2.0525532e-07 2.2142542e-06 5.1098144e-08 1.634735e-06 3.5150876e-08 6.440521e-08 1.0515738e-06
5.036189e-08 1.6121697e-06 1.3295035e-07 1.4183079e-06 3.9495294e-08 8.8530663e-07 3.4300538e-08 1.4035406e-07
6.996112e-07 1.2368456e-07 3.959351e-06 3.265145e-07 3.4180564e-06 2.727444e-07 2.4751075e-06 1.2541182e-07
1.3746923e-07 6.030069e-06 1.6438529e-09 5.262251e-08 4.3396007e-09 4.6896925e-08 3.4526806e-09 3.3987504e-08
6.961604e-10 1.0832061e-09 3.323424e-08 2.319527e-08 7.4251966e-07 6.123316e-08 7.2456555e-07 1.8405744e-07
5.5808164e-07 1.8787729e-08 4.464391e-08 1.6861601e-06 2.9140637e-07 9.32842e-06 7.6928376e-07 8.690046e-06
3.939696e-07 5.8045307e-06 1.5672565e-07 3.3094756e-07 4.239378e-06 4.7529528e-07 1.5215002e-05 1.2547304e-06
1.3151261e-05 1.3507885e-07 8.912664e-06 2.3223349e-07 3.2260215e-07 1.2498427e-06 1.3919715e-10 4.4559356e-09
3.6746636e-10 4.5521813e-09 1.5217922e-09 3.0391523e-09 2.1749917e-10 3.309348e-10 1.0059059e-08 1.2142743e-07
3.887097e-06 3.20556e-07 3.5058513e-06 5.1010197e-08 2.29778e-06 7.09239e-08 1.2509257e-07 1.6145866e-06
1.9097232e-08 6.1133414e-07 5.0414688e-08 5.511376e-07 7.965317e-09 3.9107573e-07 1.9507267e-08 3.4783366e-08
4.919825e-07 1.4695206e-06 4.7041864e-05 3.8793855e-06 4.1555802e-05 2.0272291e-06 2.849421e-05 8.087187e-07
1.0838083e-06 2.573473e-05 3.1929472e-09 1.0221156e-07 8.4290415e-09 9.017254e-08 9.336931e-09 5.679504e-08
1.7395729e-09 5.6567333e-09 3.143944e-08 2.8259007e-07 9.046188e-06 7.4600837e-07 8.171687e-06 5.6634013e-07
5.5196565e-06 1.3483259e-07 2.1330045e-07 1.6396409e-06 3.2773184e-07 1.0491265e-05 8.651778e-07 1.0017477e-05
6.809267e-07 7.09521e-06 2.1291144e-07 3.6175675e-07 5.151851e-06 1.2896145e-07 4.1282783e-06 3.4044547e-07
4.2416273e-06 6.176992e-07 3.3615029e-06 1.2566423e-07 2.5870042e-07 9.270802e-06 7.176471e-10 2.2973055e-08
1.8945123e-09 2.2067413e-08 3.3138547e-09 1.3507528e-08 7.566154e-10 2.6703681e-09 4.500482e-08 4.0165936e-08
1.2857819e-06 1.0603405e-07 1.2046241e-06 2.8408715e-07 8.7025614e-07 3.2203594e-08 6.698325e-08 2.2543009e-06
1.8337217e-09 5.8700568e-08 4.840833e-09 5.29103e-08 1.4770757e-09 3.3195168e-08 3.773851e-09 6.879257e-09
5.5615942e-08 5.356944e-07 1.7148484e-05 1.4141793e-06 1.5363808e-05 1.8937172e-07 1.07463775e-05 2.726581e-07
5.551135e-07 5.6883173e-06 1.1767988e-07 3.7671296e-06 3.1066278e-07 3.344747e-06 3.4436418e-08 2.2795014e-06
3.7666233e-08 1.462821e-07 1.7192652e-07 1.6069333e-08 5.14406e-07 4.24214e-08 4.4033595e-07 2.7873957e-08
2.840753e-07 1.0010741e-08 1.8231832e-08 9.2569444e-08 5.7824326e-07 1.8510564e-05 1.5265023e-06 1.6524258e-05

exp_avg f4 [128]
00000000: 269e f537 dc63 6939 c73d 5739 18bb ecb8
00000010: 0464 24b7 2f97 e2b8 a966 f738 88f7 1db8
00000020: 6747 0138 6215 fb38 10b3 7db6 5cf5 6737
00000030: a1c9 4739 c386 edb8 5ff0 70b6 8e47 39b9
00000040: 64f4 21b9 1fb8 3bb9 1636 9d37 1936 2b38
00000050: d00c 8639 8962 1f39 cbc6 b737 11fb 1238
00000060: 8d6f 3db7 754a 0f39 9d4f 2639 8ab9 4db8
00000070: ad6e 0f38 a33a 00b7 f649 ea39 dc19 49b7
00000080: 1ab9 a835 5347 5fb9 b9f2 4d38 bf94 1a39
00000090: e8bd 2f39 c742 4739 e50b 22b7 5771 9737
000000a0: e84e c439 4dce ba38 3442 0cb9 a736 2439
000000b0: 1ffe a9b9 adad 9ab8 9654 5239 b70b 17b5
000000c0: 657e 9a38 e06b 90b7 f9ff f339 fedd 9ab8
000000d0: a3c1 0b39 ca29 0639 d74c 16b7 dd16 cd36
000000e0: 3e87 0739 4746 33b8 bca0 36b7 2c33 32b7
000000f0: 87f1 8b37 ef90 0039 69b4 0f3a 8be8 bfb8
00000100: 8608 1838 b7f7 69b9 69a5 cdb8 3c8b 8ab9
00000110: 6b43 e0b7 bf58 cab9 477f 8039 a8c7 4b39
00000120: b17c 9b38 4864 bbb8 df0a d736 71b7 3eb9
00000130: c800 b7b9 42aa 4fb9 dc08 9338 91ac dd37
00000140: 1199 80b7 f4fa a0b9 7952 c4b7 1932 03b9
00000150: 27ce be38 f1aa 47b8 33dd ccb7 a433 8a38
00000160: 756a 8539 39b3 fa38 c785 3439 221e 3d38
00000170: 562a 9c38 8f59 0f38 cf52 2639 01bf 9ab6
00000180: c78d e239 0675 6339 ffa3 1c39 140c 2db9
00000190: 067b 98b7 17bd 2638 3538 5e39 8e62 8a38
000001a0: 1fd6 c439 6577 c337 45a0 4437 70f4 71b8
000001b0: 7281 6b39 4022 81b6 3dcf 49b8 65af 20b7
000001c0: 8dea bf38 6062 9338 d4f8 0139 cbd0 4bb8
000001d0: f83b 3039 8c0c 1a39 1e81 a339 08fa c437
000001e0: a2b1 2e37 4810 fb38 4572 1d38 befc b1b8
000001f0: c059 6f39 3094 b3b9 b6ad 5739 f899 a5b8
2.927992e-05 0.00022257812 0.00020527012 -0.00011288206 -9.798448e-06 -0.0001080468 0.00011797 -3.766225e-05
3.0822495e-05 0.000119725955 -3.7804166e-06 1.38258e-05 0.00019053232 -0.00011326142 -3.5902701e-06 -0.00017669631
-0.00015445199 -0.000179023 1.8741044e-05 4.081996e-05 0.00025568018 0.00015200129 2.190787e-05 3.5042936e-05
-1.129125e-05 0.0001366528 0.00015860652 -4.9048605e-05 3.419693e-05 -7.643047e-06 0.00044687063 -1.19865545e-05
1.2570847e-06 -0.00021293508 4.910186e-05 0.00014741997 0.00016760046 0.00019002995 -9.658722e-06 1.805338e-05
0.00037442823 8.907598e-05 -0.00013376103 0.00015660618 -0.00032423527 -7.375642e-05 0.00020058671 -5.626893e-07
7.366835e-05 -1.721637e-05 0.00046539286 -7.3846415e-05 0.00013328208 0.00012794803 -8.958587e-06 6.1121377e-06
0.00012924985 -4.2742377e-05 -1.0885469e-05 -1.0621541e-05 1.6682561e-05 0.00012261023 0.00054819003 -9.150904e-05
3.6247562e-05 -0.00022312893 -9.805972e-05 -0.0002642515 -2.6734275e-05 -0.00038594563 0.00024508892 0.00019433966
7.4142015e-05 -8.935534e-05 6.408765e-06 -0.00018188149 -0.00034905062 -0.00019804484 7.0111564e-05 2.642561e-05
-1.5330066e-05 -0.00030704553 -2.3403425e-05 -0.00012511796 9.098305e-05 -4.76045e-05 -2.4421699e-05 6.5899716e-05
0.00025447053 0.00011954312 0.00017215974 4.5089175e-05 7.446545e-05 3.4177265e-05 0.00015861842 -4.6117934e-06
0.0004321171 0.00021692002 0.00014938413 -0.00016503065 -1.81771e-05 3.9753588e-05 0.00021192509 6.59871e-05
0.00037543566 2.3301409e-05 1.1719826e-05 -5.7686528e-05 0.00022459569 -3.848487e-06 -4.811514e-05 -9.57758e-06
9.151278e-05 7.02783e-05 0.00012395094 -4.8593425e-05 0.00016807008 0.00014691259 0.00031185983 2.348145e-05
1.0412567e-05 0.00011971645 3.753814e-05 -8.4870946e-05 0.0002282625 -0.0003425195 0.0002056871 -7.896492e-05

exp_avg_sq f4 [128]
00000000: 0d3c 6232 11aa 2636 3a18 e235 e4fe ac34
00000010: c57e a631 b105 1537 49d1 8a33 b223 b734
00000020: 0440 6d34 9aaa 1135 07cf f731 948a da33
00000030: 2c99 ab35 1cf1 0b36 d8de 2730 1e02 0f35
00000040: 23ee b333 1e56 d836 a1aa 7032 2168 a635
00000050: 34fd c035 9ce1 1735 635e 5831 d537 3d34
00000060: 3b37 0a32 b5b9 1d36 3598 0a35 f266 9733
00000070: c940 2a36 3355 ea31 e41b d135 0436 9d31
00000080: c56a 0c32 c130 e335 1805 1835 2a81 b035
00000090: 37c9 9535 a148 0036 c498 1d36 acf9 cb32
000000a0: c6c4 0237 9555 9534 3585 ac34 9674 9635
000000b0: b8fb 4436 7fcf e233 4c35 a435 7455 8e31
000000c0: 6d46 ed34 269f ad31 ba9a 7736 5374 9035
000000d0: 8a69 0535 e3fb 9034 7e5b 9932 8ec5 a231
000000e0: dfc3 4835 29e7 5035 0359 2b32 b446 9c31
000000f0: ba30 dc31 5c6c 5335 5a67 f236 824b 5435
00000100: 9222 1c34 c5c0 d635 8cb8 4036 5efe c436
00000110: 8edf 7d32 062a a836 97ef ca35 9e86 6635
00000120: 3d4e 3a33 afdc 0534 d34c 6b32 0c4b 0e36
00000130: c8ee ad35 88e6 e536 f57d 6f36 cbfe 6835
00000140: a131 d431 d1ac 1937 1f59 cb32 01b7 c034
00000150: f350 1835 d11e c835 a971 ee31 be45 8e35
00000160: 2aa4 2c35 56e0 b134 e427 7935 28b2 b435
00000170: e669 ab35 7ff8 0433 a040 6335 00db b331
00000180: 2b57 5e36 7002 8335 05b5 2036 ab9e 9c36
00000190: eedc 2c34 10cd 9433 4dd5 9a35 041c c935
000001a0: c221 1e36 d347 d931 2763 3436 32cc 4d34
000001b0: a422 0336 828f ef33 df12 9f33 c682 ed32
000001c0: 9658 c935 c09f 5235 6600 0536 551e 2435
000001d0: a360 a836 805f 6435 1c13 3a35 4099 d334
000001e0: a671 ae34 63d3 d035 8a1f 5535 9308 7a34
000001f0: 6f32 0237 51da 8536 db42 9935 4d86 8d33
1.3168585e-08 2.483492e-06 1.6845363e-06 3.2222954e-07 4.845648e-09 8.882417e-06 6.4641945e-08 3.4112378e-07
2.2095634e-07 5.426497e-07 7.2121824e-09 1.0176623e-07 1.2785072e-06 2.0852958e-06 6.1070926e-10 5.327473e-07
8.378654e-08 6.447327e-06 1.4008635e-08 1.2398269e-06 1.4378807e-06 5.658019e-07 3.148579e-09 1.7622308e-07
8.045215e-09 2.3502919e-06 5.1630497e-07 7.050211e-08 2.5369684e-06 6.8199824e-09 1.5579831e-06 4.5754422e-09
8.173349e-09 1.6927007e-06 5.6631825e-07 1.3150614e-06 1.1159926e-06 1.9115762e-06 2.3483744e-06 2.3745848e-08
7.794419e-06 2.7815682e-07 3.2134417e-07 1.1209802e-06 2.9352796e-06 1.05616884e-07 1.2234464e-06 4.142459e-09
4.4195932e-07 5.0530558e-09 3.689593e-06 1.0762691e-06 4.969994e-07 2.7005362e-07 1.785315e-08 4.73728e-09
7.4790836e-07 7.782242e-07 9.973749e-09 4.5482356e-09 6.4083823e-09 7.876131e-07 7.2241937e-06 7.908603e-07
1.4541209e-07 1.6000346e-06 2.871765e-06 5.8708674e-06 1.4777369e-08 5.0116823e-06 1.5119903e-06 8.587757e-07
4.3377657e-08 1.2466874e-07 1.3696268e-08 2.1203332e-06 1.2958999e-06 6.851569e-06 3.5687092e-06 8.679751e-07
6.175654e-09 9.159748e-06 2.3672838e-08 3.589594e-07 5.674221e-07 1.491013e-06 6.9396333e-09 1.0600122e-06
6.4313883e-07 3.3132045e-07 9.2817777e-07 1.3462895e-06 1.2771313e-06 3.095965e-08 8.465813e-07 5.234483e-09
3.3131316e-06 9.76097e-07 2.3947225e-06 4.6676337e-06 1.6099122e-07 6.929088e-08 1.1535973e-06 1.4983821e-06
2.3563484e-06 6.3236967e-09 2.6879804e-06 1.9166399e-07 1.9540685e-06 1.1155409e-07 7.407447e-08 2.76499e-08
1.5001449e-06 7.8463563e-07 1.9818776e-06 6.11389e-07 5.01804e-06 8.507559e-07 6.931821e-07 3.9413317e-07
3.2492716e-07 1.5558729e-06 7.939458e-07 2.3286184e-07 7.760346e-06 3.9891243e-06 1.1418846e-06 6.590253e-08
